models/01_lenet5.pt (torch, 262759 bytes, 10 tensors)

weight f4 [6, 3, 5, 5]
-0.14490685 -0.12516466 -0.2320257 -0.18731286 -0.19203487 -0.5984716 -0.68327796 -0.72782207
-0.6190418 -0.22959594 -0.122761935 0.120310955 0.22157575 0.037354454 0.06266213 0.34822112
0.57263005 0.5797416 0.53703517 0.32696587 0.23374832 0.1319262 -0.07971885 0.07195618
0.055428434 0.36051092 0.20035939 0.14183132 0.022834815 0.054915097 -0.0862909 -0.35080084
-0.349596 -0.21566491 -0.034512408 0.12573288 0.2067662 0.24407846 0.3061382 0.12036935
0.07110176 0.20941268 0.46393383 0.35833895 0.20229581 -0.2055555 -0.3175218 -0.45382363
-0.46196416 -0.33145592 0.38632116 0.33914664 0.25770894 0.16088592 0.16964558 -0.20158698
-0.38015968 -0.3950553 -0.2840811 -0.1290389 -0.013374318 0.0020877542 0.24930133 0.21549061
0.17294858 -0.0018015528 0.17159155 0.30033135 0.11131965 0.18761536 -0.22046353 -0.12857416
-0.3853598 -0.37428787 -0.18990766 -0.040985238 -0.1559065 0.44727322 0.23818345 -0.13930796
-0.15150763 -0.48650977 -0.116196714 0.63496345 0.11320163 0.17712629 -0.40729865 -0.75686204
0.2006626 0.46767855 0.41978368 0.41455573 -0.24093185 -0.60057783 -0.24719526 -0.09204464
0.49286652 0.12782982 -0.053932644 -0.098155215 -0.21663763 -0.21801677 0.36392316 0.100347325
-0.05878151 -0.15660107 -0.5726641 -0.15483606 0.45070386 0.3607975 0.25916746 -0.25983205
-0.8749522 0.13313212 0.4466153 0.4431475 0.43434533 -0.4238525 -0.649066 -0.031119043
-0.3000578 0.4663856 0.043371916 -0.24565975 -0.19324861 -0.20048161 -0.14660394 0.44356707
-0.08370634 -0.27285865 -0.064056315 -0.3668288 -0.19345312 0.5188572 0.043998607 0.29773855
-0.2230533 -0.7926115 0.18210351 0.4613595 0.44727367 0.37773556 -0.22416048 -0.5725275
-0.20823744 -0.09967456 0.5332761 0.34790704 -0.17132826 -0.19332258 0.30345908 0.30901116
0.5411076 0.529948 0.25130516 0.25484997 0.3061088 0.4377854 0.4206042 0.15738264
0.11720651 0.30459535 0.23345718 0.09751999 -0.13801861 -0.06394283 -0.24026991 -0.55175394
-0.39653334 -0.33762616 -0.32978237 -0.39694944 -0.2834178 -0.18475755 -0.24234653 -0.06692548
-0.009769105 0.15883185 -0.020636607 -0.14154813 -0.09746889 0.08650701 -0.084724165 -0.09185892
-0.3643733 -0.04325051 -0.109989345 -0.29986954 -0.4663864 -0.44921106 -0.19711421 -0.2557878
-0.46824747 -0.45643783 -0.33070716 -0.08956878 -0.023502605 0.027630208 0.26204646 0.09754727
0.023047218 0.06773766 0.0834175 0.062349167 -0.0724436 -0.052476604 -0.021364002 -0.03324501
-0.14452082 -0.08121335 0.11728336 0.17262223 -0.19819555 -0.19621873 -0.02235211 0.11401842
-0.20628832 -0.25024596 -0.09547101 0.027150402 0.21655218 0.21723357 0.54996437 0.51208806
0.53947043 -0.04501338 0.05806946 0.0073029883 -0.094134875 -0.048939005 0.07624991 0.035220515
0.08621359 0.09157139 0.05551387 0.0028199845 0.08048678 0.17426807 0.12067153 0.045868628
-0.022713015 0.14521311 0.130361 0.26185274 0.24215862 0.1446339 -0.011345357 -0.0027106414
0.069297075 0.20752276 0.0008223189 -0.1447139 -0.22444561 -0.12272967 -0.16722691 0.027553566
00000000: 7662 14be 2a2b 00be 2598 6dbe f1ce 3fbe
00000010: caa4 44be 6f35 19bf 4eeb 2ebf 8c52 3abf
00000020: 8679 1ebf 331b 6bbe 9c6a fbbd 9765 f63d
00000030: c1e4 623e fc00 193d 0155 803d 0a4a b23e
00000040: e297 123f f269 143f 237b 093f 1268 a73e
00000050: b85b 6f3e a917 073e a343 a3bd c35d 933d
00000060: ed08 633d e394 b83e 032b 4d3e 3b3c 113e
00000070: 1410 bb3c a7ee 603d 49b9 b0bd 2b9c b3be
00000080: 3ffe b2be 43d7 5cbe e25c 0dbd 1fc0 003e
00000090: 85ba 533e b4ef 793e 25be 9c3e 3584 f63d
000000a0: cd9d 913d 4770 563e bc88 ed3e 3478 b73e
000000b0: a226 4f3e 247d 52be 3892 a2be 925b e8be
000000c0: 9186 ecbe 97b4 a9be e3cb c53e a1a4 ad3e
000000d0: 6df2 833e 47bf 243e 92b7 2d3e d16c 4ebe
000000e0: 4aa4 c2be b044 cabe 1473 91be c622 04be
000000f0: f51f 5bbc b4d2 083b d948 7f3e 92a9 5c3e
00000100: 6f19 313e 1522 ecba b2b5 2f3e 08c5 993e
00000110: 8ffb e33d 3e1e 403e 31c1 61be f2a8 03be
00000120: e14d c5be a9a2 bfbe 2777 42be 23e0 27bd
00000130: f4a5 1fbe ff00 e53e 5de6 733e bfa6 0ebe
00000140: d124 1bbe cf17 f9be 8bf8 edbd f78c 223f
00000150: 42d6 e73d 9860 353e 7389 d0be b6c1 41bf
00000160: 7f7a 4d3e 9073 ef3e e3ed d63e a640 d43e
00000170: d7b6 76be 78bf 19bf c120 7dbe e681 bcbd
00000180: 0059 fc3e d2e5 023e 7ae8 5cbd 9a05 c9bd
00000190: 41d6 5dbe ca3f 5fbe 2354 ba3e e682 cd3d
000001a0: e1c4 70bd 085c 20be 1d9a 12bf 588d 1ebe
000001b0: a8c2 e63e 73ba b83e 99b1 843e b508 85be
000001c0: defc 5fbf c953 083e c3aa e43e 3be4 e23e
000001d0: 8362 de3e 3203 d9be 3029 26bf 5ded febc
000001e0: 2da1 99be 18ca ee3e c0a6 313d 3b8e 7bbe
000001f0: f7e2 45be 0d4b 4dbe 581f 16be 391b e33e
00000200: 3b6e abbd 21b4 8bbe f52f 83bd fcd0 bbbe
00000210: 9318 46be d3d3 043f e237 343d 3071 983e
00000220: 1668 64be 96e8 4abf 5879 3a3e 5037 ec3e
00000230: 0e01 e53e 8e66 c13e 538a 65be 2a91 12bf
00000240: 323c 55be 2d22 ccbd c884 083f df20 b23e
00000250: ad70 2fbe 5bf6 45be fd5e 9b3e b636 9e3e
00000260: 0786 0a3f acaa 073f 12ab 803e b27b 823e
00000270: 4bba 9c3e 6825 e03e 6f59 d73e ea28 213e
00000280: f709 f03d ecf3 9b3e 660f 6f3e 8fb8 c73d
00000290: c054 0dbe 75f4 82bd 5109 76be bf3f 0dbf
000002a0: 6b06 cbbe 56dd acbe 3cd9 a8be f53c cbbe
000002b0: 231c 91be 1531 3dbe b029 78be 3a10 89bd
000002c0: 990e 20bc d1a4 223e 1a0e a9bc fef1 10be
000002d0: c59d c7bd 962a b13d dd83 adbd 8820 bcbd
000002e0: 238f babe 7227 31bd 1842 e1bd 8088 99be
000002f0: 33ca eebe fefe e5be 4fd8 49be 9ef6 82be
00000300: 22be efbe 38b2 e9be 7352 a9be d66f b7bd
00000310: 8988 c0bc bf58 e23c f42a 863e ddc6 c73d
00000320: 85cd bc3c 0bba 8a3d cbd6 aa3d d761 7f3d
00000330: 4f5d 94bd b5f1 56bd 8f03 afbc eb2b 08bd
00000340: 44fd 13be 2f53 a6bd 4232 f03d e2c3 303e
00000350: c6f3 4abe 90ed 48be c61b b7bc 7d82 e93d
00000360: 3f3d 53be 3d20 80be 4e86 c3bd 856a de3c
00000370: dbbf 5d3e 7a72 5e3e 77ca 0c3f 3418 033f
00000380: bc1a 0a3f f35f 38bd 3eda 6d3d e84d ef3b
00000390: c9c9 c0bd 4474 48bd ea28 9c3d 6343 103d
000003a0: c090 b03d c889 bb3d 8362 633d 7dcf 383b
000003b0: 41d6 a43d 5473 323e a322 f73d bee0 3b3d
000003c0: a510 babc bfb2 143e 5b7d 053e 9011 863e
000003d0: 6ef8 773e e91a 143e e0e1 39bc 04a5 31bb
000003e0: a0eb 8d3d d980 543e e390 573a e12f 14be
000003f0: 12d5 65be b159 fbbd 883d 2bbe 04b8 e13c

bias f4 [6]
-0.2515128 -0.25246015 -0.61762834 0.062401127 0.3497659 -0.21923864
00000000: 49c6 80be 7542 81be e41c 1ebf 5398 7f3d
00000010: 8414 b33e 1880 60be

weight f4 [16, 6, 5, 5]
0.11523649 -0.037397664 -0.07429424 0.035748314 -0.02781765 -0.162472 0.08822945 0.13828263
0.07126824 0.045965225 -0.019241452 -0.033966392 -0.119622886 -0.09930731 0.011057742 -0.011040385
0.19179837 0.26258412 0.10991926 -0.0005246714 -0.017248873 -0.006792021 0.021798907 0.020878835
0.016408041 0.03975802 -0.024371006 -0.13695496 -0.1846381 -0.16529366 0.029470757 -0.09759122
-0.24551138 -0.2538186 -0.15726052 -0.014438429 -0.06094006 -0.25110534 -0.23373203 -0.17620705
-0.11835316 -0.31623763 -0.30112115 -0.24806035 -0.22792801 0.05954603 -0.030624399 -0.118521675
-0.324767 -0.35235384 0.24305409 0.11011177 0.046934698 0.08426998 0.15547073 0.30411488
0.11573404 -0.12794778 -0.15796795 -0.036412284 0.15407634 0.052627224 0.1417298 0.19373852
0.046983104 0.13354138 -0.119886145 -0.08419297 -0.11038017 -0.06258838 0.33824182 0.30724323
0.24530882 0.20955573 0.065219335 0.23376712 0.079178944 0.078907184 0.007183077 -0.056643635
0.15079276 0.10415821 -0.048223075 -0.037268803 -0.047027014 -0.03856101 -0.101051 -0.07298767
-0.04942186 -0.0797325 -0.089647055 -0.05450728 -0.10047336 -0.055463158 -0.09166542 -0.09105314
-0.10219999 -0.062776834 0.007814911 -0.13968754 -0.10243317 -0.08143882 0.0114986375 -0.016703844
0.100459546 -0.07415627 -0.051069394 -0.020322466 0.04142739 0.13000622 -0.06789287 0.04070508
0.041445006 -0.097688906 0.1279745 0.022187486 -0.05079327 -0.035649687 -0.15135975 0.10049146
0.040336538 0.18332402 0.20730887 0.22526956 0.28190342 0.08301777 0.11608443 0.072855644
-0.06328168 0.034413517 0.07151317 0.08131122 0.05534786 -0.024541285 0.29360804 0.08354024
-0.0398094 -0.06287275 0.030731205 0.21545908 -0.11056151 -0.057295814 0.051097047 -0.1066927
0.095667295 0.040574092 -0.033958968 -0.14097814 -0.123672925 0.008450049 0.08212735 0.045304276
-0.06894227 -0.036709562 0.18206388 0.07875437 -0.18475625 -0.060705 0.24486716 0.2967252
-0.14185539 0.020807877 0.20162773 0.11177505 0.06340345 0.189772 0.07211491 0.034240045
-0.05913806 0.0749321 0.11660045 -0.120179296 0.04519844 0.059735633 0.047770802 -0.0069691464
0.14300865 0.0546244 -0.15613733 -0.098090984 0.01610675 -0.10356595 -0.24333304 -0.033001542
0.10600511 -0.30193254 -0.17210856 -0.12610337 -0.0010127886 -0.093306914 -0.1625722 -0.082720436
-0.06899666 0.0023952294 -0.015380718 0.17916141 -0.03244983 0.015975626 0.09069554 0.16307563
-0.20760138 -0.16138498 0.20246051 0.05535462 0.0033813394 -0.21671835 0.19029094 0.11592106
-0.12832937 -0.1732707 0.18513294 0.0363514 -0.13951312 -0.20115134 -0.15534921 -0.039416946
-0.24034339 -0.13780493 -0.07615415 -0.16490431 -0.1532905 -0.008593005 -0.09002233 -0.034419328
-0.13288498 0.04571251 0.13683207 -0.024049208 0.027617682 0.05870806 0.034689493 0.02021065
-0.12628028 -0.11806633 -0.039147414 -0.028144658 -0.06966944 -0.05766667 -0.1952123 -0.15931268
-0.11918961 -0.11631961 -0.07114932 -0.11425649 -0.07230522 -0.23361729 -0.18267609 -0.09016465
-0.075778484 -0.037474476 0.13317323 0.08809301 -0.0045451103 0.033574216 -0.050761715 -0.013440291
00000000: 1c01 ec3d 4b2e 19bd 9427 98bd d36c 123d
00000010: d7e1 e3bc 0f5f 26be a4b1 b43d f699 0d3e
00000020: 15f5 913d 0846 3c3d 40a0 9dbc 5820 0bbd
00000030: d8fc f4bd a261 cbbd 882b 353c bbe2 34bc
00000040: cb66 443e 6d71 863e 591d e13d 1a8a 09ba
00000050: 824d 8dbc 9a8f debb 9f93 b23c 170a ab3c
00000060: 286a 863c 4ed9 223d b4a5 c7bc ec3d 0cbe
00000070: c511 3dbe be42 29be a86c f13c e8dd c7bd
00000080: 5667 7bbe 83f4 81be e708 21be 298f 6cbc
00000090: 499c 79bd e190 80be 7357 6fbe 9f6f 34be
000000a0: 2463 f2bd e6e9 a1be 8d2c 9abe 8803 7ebe
000000b0: f665 69be 8ae6 733d 05e0 fabc 7ebb f2bd
000000c0: dc47 a6be b967 b4be 2ce3 783e 4882 e13d
000000d0: 993e 403d bd95 ac3d b833 1f3e f2b4 9b3e
000000e0: f805 ed3d be04 03be 5ac2 21be 0c25 15bd
000000f0: 30c6 1d3e a58f 573d 9e21 113e 6463 463e
00000100: 5b71 403d 12bf 083e de86 f5bd 5d6d acbd
00000110: 000f e2bd 562e 80bd 082e ad3e fc4e 9d3e
00000120: 3c32 7b3e c795 563e b791 853d a660 6f3e
00000130: 9228 a23d 179a a13d 0460 eb3b 2803 68bd
00000140: 6b69 1a3e e650 d53d 8f85 45bd 2ca7 18bd
00000150: 669f 40bd 26f2 1dbd d4f3 cebd 8f7a 95bd
00000160: 946e 4abd cb4a a3bd e098 b7bd 0743 5fbd
00000170: fac4 cdbd 562d 63bd 14bb bbbd 127a babd
00000180: 3a4e d1bd 2491 80bd 1d0a 003c 400a 0fbe
00000190: 7bc8 d1bd 65c9 a6bd c864 3c3c 80d6 88bc
000001a0: bcbd cd3d 3edf 97bd 242e 51bd 4d7b a6bc
000001b0: c4af 293d 5a20 053e 6b0b 8bbd 5fba 263d
000001c0: 3dc2 293d 1f11 c8bd bf0b 033e 88c2 b53c
000001d0: 9b0c 50bd 6805 12bd 0dfe 1abe 77ce cd3d
000001e0: ed37 253d 4bb9 3b3e c748 543e 10ad 663e
000001f0: a555 903e 3805 aa3d acbd ed3d 5735 953d
00000200: d399 81bd 30f5 0c3d 7f75 923d 7f86 a63d
00000210: 70b4 623d ce0a c9bc cb53 963e 2517 ab3d
00000220: 2e0f 23bd 6ec3 80bd 02c0 fb3c 4ea1 5c3e
00000230: 136e e2bd 04af 6abd 234b 513d b481 dabd
00000240: 37ed c33d 0531 263d 8f18 0bbd 935c 10be
00000250: 3b48 fdbd 1372 0a3c 6232 a83d fa90 393d
00000260: 9b31 8dbd c45c 16bd f46e 3a3e f949 a13d
00000270: be30 3dbe cea5 78bd 75be 7a3e 5eec 973e
00000280: 8a42 11be 4875 aa3c 8077 4e3e 51ea e43d
00000290: abd9 813d 9753 423e fbb0 933d 4a3f 0c3d
000002a0: c03a 72bd 0076 993d 37cc ee3d 9020 f6bd
000002b0: 0022 393d 5aad 743d 51ab 433d 705d e4bb
000002c0: dc70 123e d6bd 5f3d 77e2 1fbe ede3 c8bd
000002d0: 4ef2 833c 631a d4bd 4c2c 79be a02c 07bd
000002e0: 3519 d93d e796 9abe 3a3d 30be 3e21 01be
000002f0: 8cbf 84ba b217 bfbd 5479 26be 5569 a9bd
00000300: 1f4e 8dbd 48f9 1c3b 68ff 7bbc 1776 373e
00000310: 1dea 04bd 51df 823c 95be b93d 4cfd 263e
00000320: 7595 54be 1b42 25be cf51 4f3e 87bb 623d
00000330: 7699 5d3b 6aeb 5dbe a1db 423e 0568 ed3d
00000340: c668 03be e06d 31be 7d93 3d3e 35e5 143d
00000350: 87dc 0ebe 9efa 4dbe dd13 1fbe aa73 21bd
00000360: 941c 76be bc1c 0dbe b5f6 9bbd addc 28be
00000370: 2ff8 1cbe adc9 0cbc a15d b8bd 48fb 0cbd
00000380: 0013 08be 0a3d 3b3d b51d 0c3e d802 c5bc
00000390: 7a3e e23c dd77 703d 9216 0e3d ce90 a53c
000003a0: 9e4f 01be c3cc f1bd 0a59 20bd a08f e6bc
000003b0: daae 8ebd e333 6cbd bce5 47be dd22 23be
000003c0: af19 f4bd fa38 eebd bcb6 91bd 4eff e9bd
000003d0: c214 94bd 5f39 6fbe 710f 3bbe 3ea8 b8bd
000003e0: c031 9bbd d67e 19bd 905e 083e 1c6a b43d
000003f0: 26ef 94bb 1e85 093d 84eb 4fbd ab34 5cbc

bias f4 [16]
-0.08958223 0.96512955 -0.121284395 -0.14780954 -0.18935178 -0.32772845 0.939573 -0.21560617
-0.062274896 -0.14886712 -0.3603884 -0.16658305 0.49344695 -1.0157385 1.0910715 -0.2223939
00000000: e376 b7bd bb12 773f f463 f8bd 625b 17be
00000010: 6fe5 41be 06cc a7be db87 703f ddc7 5cbe
00000020: f613 7fbd 9f70 18be d484 b8be bf94 2abe
00000030: 14a5 fc3e b803 82bf 3ba8 8b3f 3abb 63be

weight f4 [120, 400]
-0.045103475 0.0016148868 -0.008274959 -0.013425428 -0.08296195 -0.015171882 0.04077899 0.022340067
-0.034450453 0.019697228 -0.043375492 0.018811975 -0.015750542 0.010791909 0.009853915 -0.013067344
-0.025073554 -0.024497122 -0.009868799 -0.12575202 -0.069633186 -0.0065409103 -0.0017873052 -0.09720787
-0.110452786 0.076126955 0.012002035 0.06241484 0.066744104 -0.012602834 0.07732784 -0.003330209
-0.04637097 -0.053072702 -0.048994135 0.012237398 0.024102991 -0.013257581 -0.0028055282 0.046171267
0.020489454 0.08646862 -0.011687314 0.018878553 0.12617145 0.05261178 0.08347628 0.12730533
0.05193793 0.11589087 -0.052835464 0.06349334 4.4863296e-05 -0.041493665 -0.12776598 -0.016386166
-0.0044847974 -0.0053085755 -0.06999067 -0.02827425 0.02224577 0.014991212 0.04420259 -0.0045456877
0.038636897 0.09075323 0.056105115 0.04500694 0.01373029 -0.02064678 0.02777288 -0.006052067
-0.048678562 -0.05393546 -0.115456685 -0.05335348 0.0010114926 0.026035616 -0.01127379 -0.0050563468
0.014980772 0.027103005 0.056716524 0.03860394 0.0034927442 -0.030737488 0.096925065 0.012331039
0.008702944 -0.014799562 0.008848998 0.07823597 0.0009001532 -0.02158166 -0.043557502 -0.05460536
-0.02629909 -0.014879331 -0.035648897 -0.05717737 0.06844177 -0.0019622585 0.08658571 -0.01289522
-0.04485242 0.045984585 0.016865175 -0.013372366 -0.0021256395 0.019454548 0.03953221 0.0309781
0.041588027 0.035981297 -0.00096621795 0.012515689 0.041629344 0.02605704 0.02841485 0.021426674
0.030084705 -0.031972636 0.04493763 -0.0015489019 -0.018298117 -0.096516386 -0.042942233 -0.028085811
-0.026001299 -0.030088326 -0.09672625 -0.083433464 -0.08158772 0.00708117 -0.010989483 -0.0141425915
-0.049011104 -0.058571506 0.07183298 0.07837509 0.03192001 -0.017896261 0.07587911 0.019314991
0.05126988 0.073475525 0.1198081 0.09781438 0.07452662 0.013542188 0.044024546 0.036527522
-0.004459381 0.020373898 -0.0011081863 -0.006403811 0.004896539 -0.040314972 -0.02730207 -0.002345662
-0.014112813 -0.049842674 -0.0102943545 0.009391912 -0.0344685 -0.031445265 -0.012541651 -0.03983342
0.0026015476 0.017659454 0.0020509774 -0.028875632 -0.0018180237 -0.019107975 -0.03039217 -0.009963175
0.03341203 -0.030863306 -0.034199152 -0.039639864 -0.0040396843 0.0055924812 -0.008632661 -0.059262916
-0.034122817 -0.04031257 -0.10351098 -0.010426249 -0.072634764 -0.003144605 -0.00891427 -0.08223164
-0.043099795 -0.0452353 -0.03258918 -0.010456762 0.027048627 -0.042405747 -0.03674027 0.067247674
0.01615801 0.046269853 0.03432155 0.035187397 0.070991784 0.026004253 0.06728382 0.02345479
0.030929187 0.031661175 -0.023171082 0.037105966 0.025081962 0.0034913158 0.026733343 -0.020182835
0.0020365594 -0.005913806 -0.007139406 0.023113362 -0.025095046 -0.06809132 -0.020257905 -0.056172125
0.052820485 0.0033581944 -0.02565351 0.013543552 0.021680053 0.047020927 -0.09568831 -0.08588639
-0.027464274 -0.03612582 -0.008396004 -0.080548696 -0.05363985 -0.028467987 -0.053581953 -0.054693222
-0.05772967 -0.09242415 -0.12155861 -0.12505725 -0.12025828 -0.15066276 -0.11627656 -0.10434604
-0.13055725 -0.106403075 0.05383838 0.046927795 0.07335074 0.079884544 0.12508838 0.053298064
00000000: 6cbe 38bd 9caa d33a b293 07bc 54f6 5bbc
00000010: f4e7 a9bd 7c93 78bc df07 273d 8402 b73c
00000020: eb1b 0dbd 155c a13c 80aa 31bd 921b 9a3c
00000030: 4807 81bc 8cd0 303c 5172 213c 6a18 56bc
00000040: 0e67 cdbc 30ae c8bc beb0 21bc 23c5 00be
00000050: d89b 8ebd 2255 d6bb 0344 eaba eb14 c7bd
00000060: 1235 e2bd 73e8 9b3d 2fa4 443c b4a6 7f3d
00000070: 22b1 883d 1e7c 4ebc 0f5e 9e3d a33f 5abb
00000080: 7cef 3dbd c362 59bd 13ae 48bd 5e7f 483c
00000090: a373 c53c 5336 59bc f4dc 37bb 151e 3d3d
000000a0: 80d9 a73c 7616 b13d 267c 3fbc 32a7 9a3c
000000b0: 1733 013e 737f 573d 9df5 aa3d 545c 023e
000000c0: debc 543d 3158 ed3d 006a 58bd cc08 823d
000000d0: 992b 3c38 43f5 29bd 16d5 02be 483c 86bc
000000e0: 35f5 92bb 8ff3 adbb 4557 8fbd 669f e7bc
000000f0: c33c b63c b39d 753c c60d 353d fef3 94bb
00000100: b941 1e3d d4dc b93d 7ace 653d 3259 383d
00000110: 03f5 603c 7023 a9bc f383 e33c 6b50 c6bb
00000120: 2c63 47bd 6eeb 5cbd 8e74 ecbd 2e89 5abd
00000130: 0f94 843a a548 d53c b4b5 38bc b6af a5bb
00000140: e971 753c 1f07 de3c 964f 683d 2a1f 1e3d
00000150: 86e6 643b 2fcd fbbc a680 c63d 2008 4a3c
00000160: cb96 0e3c dd79 72bc 63fb 103c 2e3a a03d
00000170: 42f8 6b3a 05cc b0bc 5a69 32bd dfa9 5fbd
00000180: 3071 d7bc 70c8 73bc 9404 12bd d132 6abd
00000190: 332b 8c3d 3c99 00bb d953 b13d 7946 53bc
000001a0: 2cb7 37bd 555a 3c3d d628 8a3c c517 5bbc
000001b0: 504e 0bbb 255f 9f3c 87ec 213d c9c5 fd3c
000001c0: 3558 2a3d 2061 133d ca49 7dba 9b0e 4d3c
000001d0: 8883 2a3d 9375 d53c 42c6 e83c fe86 af3c
000001e0: 3374 f63c bdf5 02bd 8510 383d 8604 cbba
000001f0: efe5 95bc 62aa c5bd 32e4 2fbd 3714 e6bc
00000200: ad00 d5bc cb7b f6bc 6a18 c6bd 2adf aabd
00000210: 7617 a7bd 2909 e83b 3c0d 34bc 54b6 67bc
00000220: debf 48bd ade8 6fbd 2b1d 933d 1f83 a03d
00000230: 8ebe 023d 2e9b 92bc 8266 9b3d 793a 9e3c
00000240: 5e00 523d 567a 963d f35d f53d e852 c83d
00000250: 6aa1 983d 0ee0 5d3c 1553 343d e29d 153d
00000260: 0020 92bb 29e7 a63c 9040 91ba 0fd7 d1bb
00000270: 2573 a03b 5021 25bd 97a8 dfbc aeb9 19bb
00000280: 6e39 67bc d527 4cbd a7a9 28bc 89e0 193c
00000290: d82e 0dbd c0cc 00bd 7f7b 4dbc 5e28 23bd
000002a0: ba7e 2a3b 8faa 903c b169 063b 978c ecbc
000002b0: c14a eeba 5488 9cbc 00f9 f8bc 963c 23bc
000002c0: 0edb 083d 0bd5 fcbc 6914 0cbd 695d 22bd
000002d0: 545f 84bb 2241 b73b 0170 0dbc acbd 72bd
000002e0: 5ec4 0bbd cb1e 25bd 91fd d3bd dcd2 2abc
000002f0: 89c1 94bd b815 4ebb 290d 12bc 1069 a8bd
00000300: 6989 30bd a648 39bd 3b7c 05bd d752 2bbc
00000310: 1595 dd3c a6b1 2dbd f77c 16bd 26b9 893d
00000320: ce5d 843c 7585 3d3d c194 0c3d a920 103d
00000330: 2464 913d df06 d53c 19cc 893d 4224 c03c
00000340: 355f fd3c 26af 013d 48d1 bdbc 6dfc 173d
00000350: b078 cd3c 8fce 643b e2ff da3c 7956 a5bc
00000360: cc77 053b 9ac8 c1bb aef1 e9bb 3c58 bd3c
00000370: 2094 cdbc 7673 8bbd e8f3 a5bc be14 66bd
00000380: 4b5a 583d 2715 5c3b 4f27 d2bc c6e5 5d3c
00000390: 5e9a b13c 0499 403d 3cf8 c3bd 34e5 afbd
000003a0: c2fc e0bc abf8 13bd 658f 09bc b7f6 a4bd
000003b0: 76b5 5bbd b235 e9bc c078 5bbd 0006 60bd
000003c0: f275 6cbd df48 bdbd b8f3 f8bd 020f 00be
000003d0: f949 f6bd 5747 1abe 6822 eebd 60b3 d5bd
000003e0: cdb0 05be dbe9 d9bd a285 5c3d 5c37 403d
000003f0: ea38 963d 829a a33d 2b17 003e 124f 5a3d

bias f4 [120]
0.044090047 -0.056220148 -0.010555285 0.08994421 0.1268382 -0.10545951 -0.041871917 0.014403114
-0.004205893 0.12811455 0.01897191 0.14810418 -0.026954439 -0.014286109 -0.018630246 -0.035747044
0.029855398 0.19864108 0.023521852 0.19977751 -0.028723346 -0.05456302 0.111042365 -0.060115326
0.18215014 -0.095736615 0.16744101 0.084367216 0.018266542 -0.1743714 0.07431425 0.16073847
-0.003330382 0.18441518 0.089309216 0.018335657 -0.04565153 -0.030568313 -0.05295764 0.15246072
0.016447233 0.07102594 0.15417564 -0.032296635 -0.051907603 0.003949324 0.060400184 0.027290333
0.084976815 0.01979416 0.088987276 0.08796972 -0.020449126 -0.07923598 0.13093753 -0.07638271
-0.10361263 -0.017497407 0.07738407 -0.060426336 -0.023064824 0.11205307 0.1471728 -0.06960564
-0.054055784 0.16437446 -0.19951187 0.0073518036 -0.07669848 0.14148097 -0.0064788726 -0.05405646
0.14314783 0.028311355 -0.021560626 -0.15841822 -0.051128916 -0.007905428 0.17963843 0.1975382
0.16778864 -0.03238641 0.005504265 -0.019550309 -0.12834361 0.032205097 0.08517764 0.019190084
-0.052271646 0.08867455 0.08528043 -0.18012334 -0.034084022 0.0005036492 0.16013625 0.16758811
0.09586761 -0.019879939 -0.14832342 0.11941897 0.031657077 0.12722895 0.12348055 -0.08997573
-0.044214603 0.10859142 0.070601165 0.07184334 -0.040234663 -0.045102384 -0.008380585 -0.03285001
0.04097691 -0.020590425 0.11291322 0.040361334 0.01114534 -0.08262531 -0.06220969 0.08060758
00000000: c497 343d 1947 66bd 13f0 2cbc ac34 b83d
00000010: e0e1 013e 28fb d7bd e381 2bbd 0afb 6b3c
00000020: 96d1 89bb 7630 033e fb6a 9b3c 9fa8 173e
00000030: 8ecf dcbc 4910 6abc 759e 98bc 7e6b 12bd
00000040: 4f93 f43c 9168 4b3e e6b0 c03c 7a92 4c3e
00000050: 394d ebbc 797d 5fbd 2e6a e33d 7d3b 76bd
00000060: 9185 3a3e 8f11 c4bd a875 2b3e b8c8 ac3d
00000070: b7a3 953c 6b8e 32be 1232 983d a098 243e
00000080: 8a42 5abb 55d7 3c3e c0e7 b63d a934 963c
00000090: 19fd 3abd 666a fabc 1cea 58bd aa1e 1c3e
000000a0: 59bc 863c 0c76 913d 38e0 1d3e 7a49 04bd
000000b0: 119d 54bd 5569 813b 2f66 773d fa8f df3c
000000c0: 5308 ae3d 5d27 a23c f63e b63d 7829 b43d
000000d0: ed84 a7bc 7946 a2bd 7d14 063e 8a6e 9cbd
000000e0: dc32 d4bd b956 8fbc 8a7b 9e3d 9b81 77bd
000000f0: 71f2 bcbc 147c e53d 77b4 163e 678d 8ebd
00000100: 9969 5dbd c751 283e d74c 4cbe 66e7 f03b
00000110: 1814 9dbd 63e0 103e b94c d4bb 4e6a 5dbd
00000120: 5895 123e 37ed e73c e99f b0bc 6338 22be
00000130: 8e6c 51bd c585 01bc 23f3 373e 7447 4a3e
00000140: c9d0 2b3e 9da7 04bd 1f5d b43b f827 a0bc
00000150: 826c 03be 7ee9 033d 9d71 ae3d 8634 9d3c
00000160: cb1a 56bd 019b b53d 82a7 ae3d 4172 38be
00000170: b09b 0bbd 5307 043a c2fa 233e 389c 2b3e
00000180: 3d56 c43d 41db a2bc 18e2 17be ef91 f43d
00000190: daaa 013d 4e48 023e 5fe3 fc3d 3245 b8bd
000001a0: 5f1a 35bd 2e65 de3d 5897 903d 9a22 933d
000001b0: 1acd 24bd 47bd 38bd b94e 09bc bb8d 06bd
000001c0: 68d7 273d 40ad a8bc 0c3f e73d ed51 253d
000001d0: f29a 363c 7537 a9bd 97cf 7ebd 9615 a53d

weight f4 [84, 120]
-0.13287736 0.019881945 0.055031963 -0.05413219 -0.00850367 -0.11110219 0.15220532 -0.12903602
0.06819432 0.060498588 0.053626243 0.09264956 0.019378131 -0.090917274 0.08416043 0.07145498
-0.0044046673 0.04233198 0.052625835 -0.021673724 0.047249675 -0.046096697 0.097933054 -0.029131463
-0.034933016 0.11542719 -0.002209873 0.12166633 0.08277567 -0.1333301 -0.014612296 -0.016966958
0.034080613 0.07505389 -0.083375424 -0.07924879 0.019068819 0.07444082 0.12753719 -0.11231922
-0.1055382 0.1735858 0.05032263 -0.110903494 -0.08033124 -0.03583989 0.023272138 -0.08351145
0.05569175 -0.08781275 -0.066536315 -0.03362492 -0.06767139 0.03542236 0.057884805 0.11934976
0.053411826 -0.03958853 0.017438414 -0.0039552697 0.048727777 -0.078912295 -0.0131664025 0.036458302
0.059490573 0.01626592 0.10104699 0.06554322 0.10723007 -0.081153154 -0.04787537 -0.044381123
-0.11426361 0.064084955 -0.18077327 0.023194078 0.024923993 0.03575397 -0.077354886 0.049931265
0.048682123 -0.10252158 0.08687607 -0.007656342 0.011829919 -0.029808952 -0.023880092 0.08682033
-0.06730754 -0.08292669 -0.060094222 0.22418682 -0.05668645 0.015814144 -0.042389255 -0.13512972
-0.03698482 0.01649519 0.055015452 -0.05936303 0.08441287 0.04520751 0.09361393 -0.14543734
0.01916088 -0.020628167 -0.06824362 -0.13973153 -0.06559904 -0.10630536 0.020762036 0.039757658
0.027954675 0.07684201 -0.015811801 0.06833001 -0.027535059 0.17231084 0.019378532 -0.0062730424
0.08684446 0.061291657 -0.061289735 0.049341742 -0.065598264 -0.06764546 0.041797224 0.047337074
-0.070663996 0.10619806 0.037430163 0.108917266 0.058355495 -0.05073727 0.043981776 0.038874894
-0.101057075 0.0067446027 -0.06934502 -0.048075125 -0.035422463 -0.103978395 0.046221074 -0.16411756
0.10531093 0.031064346 0.038166534 -0.090318605 -0.018742116 -0.041636534 0.10598121 0.051113874
0.03511558 0.058587585 -0.109506965 -0.0363686 -0.11359127 0.031078571 -0.057499826 -0.050522014
0.0029798136 0.13579948 0.02931369 -0.07256893 0.036860283 -0.041247413 0.0905649 0.08360886
-0.02955639 0.04785607 -0.008911024 -0.05685138 -0.10931871 -0.029580167 0.018365161 -0.07970907
-0.103943855 -0.11163501 0.008700605 0.00736325 0.012882528 0.05407501 0.012674495 -0.06851073
-0.007114572 0.043046616 -0.111970164 0.014295016 0.01577395 0.1192246 0.055760484 0.06773039
0.088737085 -0.14065851 0.019526975 -0.06374207 -0.027836626 0.02888961 0.11043809 0.10535049
0.106900364 -0.06530176 -0.09077499 0.0065774852 -0.12909347 -0.06557373 0.09864884 0.024559697
-0.12791447 0.015824307 0.1267076 0.026375994 -0.023715906 -0.07633114 0.11565694 0.09987201
0.06686743 -0.064520694 -0.11184625 -0.029285425 -0.010009133 0.05234991 0.18388188 -0.070991114
-0.019166607 -0.02659246 -0.0467326 0.078206114 -0.07449372 -0.07118304 0.06946979 -0.10417817
-0.036626793 -0.056689035 0.11313407 -0.058135096 -0.01286135 0.014683527 -0.0912005 0.08790118
0.01492116 -0.061388355 -0.022974003 -0.008894594 0.022777714 -0.09767747 -0.122800246 -0.02501845
-0.18071848 -0.04295188 0.0887437 -0.074713245 0.023994863 0.050796095 -0.058955528 0.059115544
00000000: 0111 08be 76df a23c 3269 613d b7b9 5dbd
00000010: fa52 0bbc 8c89 e3bd b6db 1b3e 0522 04be
00000020: 77a9 8b3d 5ecd 773d 31a7 5b3d 0dbf bd3d
00000030: e3be 9e3c d632 babd 4e5c ac3d fd56 923d
00000040: 0755 90bb 4c64 2d3d 308e 573d 188d b1bc
00000050: e088 413d e4cf 3cbd 2091 c83d 1ba5 eebc
00000060: ec15 0fbd 1765 ec3d 84d3 10bb 322c f93d
00000070: 4a86 a93d b087 08be 6968 6fbc 4afe 8abc
00000080: 1d98 0b3d dbb5 993d bcc0 aabd 314d a2bd
00000090: 3636 9c3c 6e74 983d 1c99 023e 9f07 e6bd
000000a0: 6924 d8bd 7ac0 313e 1a1f 4e3d 5f21 e3bd
000000b0: b584 a4bd d9cc 12bd 36a5 be3c 0d08 abbd
000000c0: 081d 643d 2cd7 b3bd 3144 88bd 49ba 09bd
000000d0: 4c97 8abd 0917 113d 9e18 6d3d a66d f43d
000000e0: 5cc6 5a3d 9527 22bd 01db 8e3c 359b 81bb
000000f0: c796 473d c59c a1bd e5b7 57bc 4d55 153d
00000100: 63ac 733d 1b40 853c b9f1 ce3d 863b 863d
00000110: 709b db3d a033 a6bd f718 44bd fbc8 35bd
00000120: 0a03 eabd f93e 833d a11c 39be 8201 be3c
00000130: 672d cc3c c172 123d 3d6c 9ebd ba84 4c3d
00000140: e866 473d d6f6 d1bd 15ec b13d 0de2 fabb
00000150: 47d2 413c e731 f4bc 2fa0 c3bc dbce b13d
00000160: 89d8 89bd 78d5 a9bd 5c25 76bd 3b91 653e
00000170: 0d30 68bd aa8c 813c 5ba0 2dbd 725f 0abe
00000180: 657d 17bd ec20 873c e257 613d a626 73bd
00000190: a8e0 ac3d 832b 393d a9b8 bf3d 87ed 14be
000001a0: 47f7 9c3c 67fc a8bc 50c3 8bbd c815 0fbe
000001b0: ca58 86bd a0b6 d9bd 2515 aa3c edd8 223d
000001c0: 3401 e53c 585f 9d3d c087 81bc 9bf0 8b3d
000001d0: 3491 e1bc 4172 303e babf 9e3c 188e cdbb
000001e0: 82db b13d f60c 7b3d f20a 7bbd 911a 4a3d
000001f0: 6258 86bd b489 8abd 9133 2b3d 85e4 413d
00000200: 49b8 90bd 5e7e d93d 5f50 193d 0410 df3d
00000210: 2c06 6f3d e2d1 4fbd 3c26 343d 483b 1f3d
00000220: 03f7 cebd d401 dd3b c304 8ebd 6cea 44bd
00000230: 2517 11bd a0f2 d4bd 4f52 3d3d 6f0e 28be
00000240: 42ad d73d a87a fe3c 8354 1c3d f6f8 b8bd
00000250: 1189 99bc 128b 2abd ad0c d93d c85c 513d
00000260: 5bd5 0f3d 89f9 6f3d 3045 e0bd 3ef7 14bd
00000270: 8aa2 e8bd 7d98 fe3c f084 6bbd 2cf0 4ebd
00000280: fa48 433b 050f 0b3e 4323 f03c 059f 94bd
00000290: cffa 163d 0cf3 28bd 177a b93d 1f3b ab3d
000002a0: 3e20 f2bc ba04 443d 8bff 11bc fedc 68bd
000002b0: 7de2 dfbd 1b52 f2bc 8972 963c 823e a3bd
000002c0: 84e0 d4bd e5a0 e4bd fb8c 0e3c 6b47 f13b
000002d0: 3d11 533c c27d 5d3d afa8 4f3c 5b4f 8cbd
000002e0: 5b21 e9bb a651 303d 9d50 e5bd a535 6a3c
000002f0: 5f38 813c 072c f43d 1b65 643d 3bb6 8a3d
00000300: cabb b53d c908 10be 09f7 9f3c 348b 82bd
00000310: a309 e4bc e7a9 ec3c 5e2d e23d ffc1 d73d
00000320: 94ee da3d eebc 85bd 3de8 b9bd f287 d73b
00000330: 1431 04be 854b 86bd 6708 ca3d 6b31 c93c
00000340: 03fc 02be faa1 813c a3bf 013e 7812 d83c
00000350: dc47 c2bc 8053 9cbd 8cdd ec3d b289 cc3d
00000360: cbf1 883d 6d23 84bd a60f e5bd fde7 efbc
00000370: 59fd 23bc dc6c 563d 884b 3c3e ca63 91bd
00000380: 4a03 9dbc 6ed8 d9bc af6a 3fbd 872a a03d
00000390: 2a90 98bd 6ac8 91bd 2d46 8e3d 5d5b d5bd
000003a0: fa05 16bd c332 68bd d6b2 e73d 111f 6ebd
000003b0: 69b8 52bc 2d93 703c 54c7 babd 8905 b43d
000003c0: e277 743c 5b72 7bbd fa33 bcbc a2ba 11bc
000003d0: 5498 ba3c 200b c8bd b27e fbbd 7ef3 ccbc
000003e0: 440e 39be 4fee 2fbd 42bf b53d 4203 99bd
000003f0: e090 c43c 910f 503d 5a7b 71bd 2423 723d

bias f4 [84]
-0.11626341 0.19706605 0.09681921 0.2748267 0.036677063 -0.008944919 0.11083316 -0.09990038
0.35158235 0.13065313 0.12542753 -0.14033774 0.014271911 -0.044409785 0.4870596 0.076133676
0.16782072 0.20238706 0.041290723 -0.2091548 0.16224249 -0.040713362 0.023911402 0.08696725
-0.037298616 0.0313053 -0.07952171 0.1046249 0.3356959 0.23554277 0.32295352 -0.019008074
0.11240776 0.42528757 0.20309924 -0.051913332 -0.07086384 0.018376049 -0.068367496 0.121321246
0.0056078318 0.03728958 -0.14095631 -0.014156139 0.09666733 0.06322269 -0.02328838 0.092047475
0.18403845 -0.03594355 0.1995957 0.0012400489 -0.054389093 0.2893584 0.11673654 -0.03466893
0.2110364 -0.020584863 0.13753183 0.0070546004 0.008204273 0.2730666 0.30936438 0.15155138
-0.07254801 0.063465595 0.39712435 -0.092143305 -0.09457708 -0.063441634 0.2051295 0.09748383
0.063285545 0.11486757 0.32304108 0.061522745 0.082265735 0.116975754 0.13590656 0.024654264
-0.0012171287 -0.027167212 -0.09101085 -0.060221624
00000000: 831b eebd afcb 493e 2649 c63d 16b6 8c3e
00000010: b03a 163d b68d 12bc 7ffc e23d 9298 ccbd
00000020: 9a02 b43e efc9 053e 1370 003e b2b4 0fbe
00000030: bcd4 693c 09e7 35bd e05f f93e f9eb 9b3d
00000040: 32d9 2b3e 8e3e 4f3e 7620 293d ad2c 56be
00000050: e522 263e 0ec3 26bd d8e1 c33c e31b b23d
00000060: 6fc6 18bd fc39 003d 47dc a2bd 9445 d63d
00000070: 55e0 ab3e 2032 713e 2a5a a53e d2b6 9bbc
00000080: 0a36 e63d 4bbf d93e 3ff9 4f3e 13a3 54bd
00000090: 1021 91bd 5e89 963c 4204 8cbd 4677 f83d
000000a0: e7c1 b73b f5bc 183d da56 10be 27ef 67bc
000000b0: 85f9 c53d e67a 813d 46c7 bebc 6383 bc3d
000000c0: 9374 3c3e 8b39 13bd d162 4c3e 2389 a23a
000000d0: 19c7 5ebd c926 943e 9113 ef3d 0201 0ebd
000000e0: ed19 583e 96a1 a8bc 25d5 0c3e 472a e73b
000000f0: 376b 063c 63cf 8b3e 0265 9e3e 4930 1b3e
00000100: 0d94 94bd 40fa 813d e253 cb3e a1b5 bcbd
00000110: a1b1 c1bd b0ed 81bd 780d 523e 9aa5 c73d
00000120: da9b 813d b03f eb3d a465 a53e 46ff 7b3d
00000130: f07a a83d fc90 ef3d 172b 0b3e bdf7 c93c
00000140: 1088 9fba c68d debc e663 babd f3aa 76bd

weight f4 [10, 84]
0.2583733 0.22097649 -0.086624466 -0.3047131 0.15798959 0.092856 0.16443159 0.08624217
0.14524709 0.07945436 -0.08569629 -0.101368845 -0.0876391 0.08858678 -0.28929225 -0.086566135
0.28441328 0.03372633 0.15248409 -0.020335745 0.05591011 0.11633567 0.00470056 -0.19983257
0.04674234 -0.14585392 0.16541798 -0.112153 0.20473067 -0.20429406 0.16815516 -0.037497453
0.091731645 0.27122068 0.13150737 -0.030883696 -0.18523641 0.09803977 -0.06470445 -0.21806541
0.041019093 0.10769645 0.21562633 -0.07885478 0.08482841 0.02397224 0.10140077 -0.0624162
0.15001188 0.17676869 -0.102272056 0.22041112 0.11569355 0.10177881 -0.16651386 -0.019716317
-0.053317916 -0.08395185 0.016099213 -0.096437395 -0.012028484 -0.17416053 0.08630984 -0.12937681
0.06870973 0.16614604 -0.33133748 0.062269058 -0.028232785 -0.024147706 0.017913572 -0.04874154
-0.14226812 0.20040306 0.16151026 0.22023773 -0.089057535 0.2530216 0.22446294 -0.0367597
-0.27585354 0.11693186 -0.059060037 0.048250232 0.19840312 -0.020627227 0.00045597868 -0.08001882
0.0775951 0.16583496 -0.09357885 -0.025207097 -0.35136786 0.10883062 -0.048079237 0.17039971
-0.07833803 -0.035986315 -0.32821333 0.22466025 -0.2381055 0.059466902 -0.1955714 0.09334835
0.29125354 -0.04414042 0.20963898 -0.21352586 0.1269201 0.20175827 0.061782084 -0.10141466
-0.07177349 -0.107509606 -0.10766753 0.01124912 0.120973304 -0.23105234 -0.0031139387 0.0091130715
-0.015154059 0.10722062 -0.054817416 -0.11178853 0.18012194 0.097358346 -0.110414214 0.20109557
-0.3289844 -0.044800434 -0.10318339 -0.0038500426 -0.08050481 -0.24485825 -0.21807495 0.31276622
-0.03913548 -0.030437637 0.0048280233 -0.07429287 0.04120681 -0.034593645 0.37328964 -0.21144521
-0.025928525 0.02070855 -0.13123433 0.074527115 0.22602186 -0.09004968 -0.19428355 0.010247068
0.1729206 0.0839706 0.11243966 -0.0012725302 -0.0656442 -0.061664615 0.046858408 0.3280538
0.112023935 0.11184223 0.21802123 0.0034926354 0.2582855 -0.20308481 0.022431072 0.15473437
-0.035904728 -0.024413958 -0.0016451818 0.22339594 -0.019883612 -0.11431894 -0.1850405 0.24122642
0.098191515 -0.21338166 -0.09859298 -0.16153117 -0.03033598 0.08353855 0.2244735 -0.035456225
0.1292543 -0.006704683 0.1545569 0.0050646886 -0.17964615 -0.03953168 -0.025428196 0.11107481
0.013535982 0.08115572 0.17861737 -0.07572609 0.19687432 -0.11248799 -0.029300448 -0.06702938
-0.0073653697 0.037816606 -0.006910164 0.11559296 0.08877455 -0.14123596 0.053385533 -0.049785666
-0.16469976 0.0074830954 0.0108004045 0.07180363 -0.08322948 -0.0768004 0.28152564 -0.121607415
0.27944264 0.1352737 0.107217655 -0.051468294 0.052726984 -0.094205864 0.030255247 0.062335324
-0.10638109 -0.11611308 -0.15148166 -0.0318683 -0.12785722 0.23453501 0.13253434 -0.102207616
-0.0933994 0.17527829 0.12766762 -0.0055563147 0.08607597 0.009355719 -0.081735075 -0.004853781
0.015694214 0.16299362 -0.17571145 -0.20027283 0.10682194 -0.053641632 -0.0456648 -0.01845705
-0.13860902 0.23096423 0.04313214 0.10608276 0.08046558 -0.07609461 -0.07082283 -0.06272978
00000000: 8149 843e a947 623e 2b68 b1bd 5b03 9cbe
00000010: 06c8 213e 492b be3d c160 283e bc9f b03d
00000020: a7bb 143e f8b8 a23d 8981 afbd 789a cfbd
00000030: 217c b3bd fc6c b53d 1d1e 94be 9649 b1bd
00000040: 9e9e 913e 9f24 0a3d ca24 1c3e 2697 a6bc
00000050: 0002 653d 6541 ee3d 2807 9a3b e9a0 4cbe
00000060: e574 3f3d bb5a 15be 5563 293e 79b0 e5bd
00000070: eba4 513e 7632 51be de30 2c3e ee96 19bd
00000080: cddd bb3d 70dd 8a3e dea9 063e ceff fcbc
00000090: 9dae 3dbe 13c9 c83d c483 84bd 8a4c 5fbe
000000a0: a303 283d f58f dc3d 26cd 5c3e 9d7e a1bd
000000b0: 84ba ad3d 6e61 c43c 35ab cf3d 21a8 7fbd
000000c0: b79c 193e da02 353e 0374 d1bd 74b3 613e
000000d0: bdf0 ec3d 6971 d03d 9c82 2abe 1d84 a1bc
000000e0: e363 5abd f3ee abbd 7fe2 833c f880 c5bd
000000f0: 1e13 45bc 2357 32be 37c3 b03d 5b7b 04be
00000100: b0b7 8c3d 3022 2a3e 11a5 a9be d70d 7f3d
00000110: 7148 e7bc 69d1 c5bc 7cbf 923c 36a5 47bd
00000120: bcae 11be 7636 4d3e f262 253e 0086 613e
00000130: cc63 b6bd 0c8c 813e 9dd9 653e 5791 16bd
00000140: ad3c 8dbe f979 ef3d f0e8 71bd 09a2 453d
00000150: 302a 4b3e 6efa a8bc 6c10 ef39 e8e0 a3bd
00000160: 2eea 9e3d a4d0 293e 45a6 bfbd 1d7f cebc
00000170: 7de6 b3be 97e2 de3d bcee 44bd 437d 2e3e
00000180: b06f a0bd 6366 13bd 940b a8be 560d 663e
00000190: eed1 73be 9193 733d de43 48be 6b2d bf3d
000001a0: 2f1f 953e 96cc 34bd 9aab 563e 86a6 5abe
000001b0: 58f7 013e b899 4e3e 360f 7d3d 7db2 cfbd
000001c0: fbfd 92bd ff2d dcbd cb80 dcbd 3b4e 383c
000001d0: dac0 f73d fc98 6cbe 3913 4cbb fe4e 153c
000001e0: bb48 78bc 7c96 db3d 3a88 60bd 63f1 e4bd
000001f0: e371 383e d063 c73d d920 e2bd ffeb 4d3e
00000200: a570 a8be a980 37bd d051 d3bd ff50 7cbb
00000210: b5df a4bd 1fbc 7abe 0a4f 5fbe e522 a03e
00000220: 864c 20bd 5a58 f9bc 6534 9e3b dc26 98bd
00000230: 79c8 283d 11b2 0dbd d21f bf3e 1885 58be
00000240: 0f68 d4bc faa4 a93c 4b62 06be aca1 983d
00000250: 4672 673e f76b b8bd 44f2 46be 51e3 273c
00000260: 1912 313e c7f8 ab3d c446 e63d 07cb a6ba
00000270: 7770 86bd 0994 7cbd 9aee 3f3d abf6 a73e
00000280: ce6c e53d 8a0d e53d f540 5f3e b3e4 643b
00000290: ff3d 843e 77f5 4fbe 5ec1 b73c b072 1e3e
000002a0: d610 13bd c8ff c7bc 24a3 d7ba e8c1 643e
000002b0: f5e2 a2bc 0c20 eabd 427b 3dbe 0f04 773e
000002c0: a218 c93d b980 5abe 1eeb c9bd 6d68 25be
000002d0: 2983 f8bc 4216 ab3d 62dc 653e 8c3a 11bd
000002e0: 3d5b 043e f5b2 dbbb 2a44 1e3e b0f5 a53b
000002f0: 29f5 37be f9eb 21bd cb4e d0bc 317b e33d
00000300: 06c6 5d3c f834 a63d 79e7 363e 4816 9bbd
00000310: 6c99 493e 1a60 e6bd 7e07 f0bc b346 89bd
00000320: 3359 f1bb 96e5 1a3d a86e e2bb 00bc ec3d
00000330: 6ecf b53d 29a0 10be caaa 5a3d 0eec 4bbd
00000340: 0ea7 28be c134 f53b 2ef4 303c c80d 933d
00000350: 3874 aabd 8749 9dbd 2124 903e 4f0d f9bd
00000360: 1b13 8f3e 3085 0a3e ee94 db3d 6bd0 52bd
00000370: 40f8 573d 01ef c0bd dad9 f73c 5353 7f3d
00000380: 54de d9bd b2cc edbd 021e 1bbe 5688 02bd
00000390: 01ed 02be f229 703e 15b7 073e 3a52 d1bd
000003a0: 2f48 bfbd 277c 333e 4dbb 023e bf11 b6bb
000003b0: 9948 b03d bb48 193c b864 a7bd 770c 9fbb
000003c0: 2791 803c cde7 263e b4ed 33be 5214 4dbe
000003d0: 76c5 da3d 54b7 5bbd 030b 3bbd 3d33 97bc
000003e0: 86ef 0dbe e381 6c3e 54ab 303d eb41 d93d
000003f0: 23cb a43d 7ed7 9bbd 8f0b 91bd 7978 80bd

bias f4 [10]
-0.3004777 -0.6604076 0.023158897 0.43273577 0.60448444 0.010213566 -0.006276867 -0.24051864
0.4645195 -0.20554624
00000000: 37d8 99be 7910 29bf bab7 bd3c 8b8f dd3e
00000010: 7ebf 1a3f cd56 273c 2dae cdbb 854a 76be
00000020: 80d5 ed3e b77a 52be
