models/01_lenet5.pt (torch, 262759 bytes, 10 tensors)

weight f4 [6, 3, 5, 5]
000000 d3 d9 2c be b8 4d e2 bd 7b 23 5f be d7 44 23 be
       -0.16879968 -0.1104998 -0.21790878 -0.15944229
000010 7c d8 11 be f7 12 1c bf 1d 8f 2c bf 56 97 33 bf
       -0.14242738 -0.6096644 -0.67405874 -0.70152795
000020 f3 27 1a bf 4a af 81 be 6c 7c 00 be 6d 07 0e 3e
       -0.6021721 -0.25329047 -0.12547463 0.1387002
000030 63 27 75 3e 74 f7 64 3d 7c c7 08 3d 52 74 ae 3e
       0.23940806 0.055900052 0.033393368 0.3407312
000040 49 ee 12 3f f7 0e 0f 3f 86 e3 02 3f 7e bc 9f 3e
       0.57394844 0.5588221 0.51128423 0.31198496
000050 27 68 7d 3e 2c 91 0a 3e 90 45 d4 bd be f5 2d 3d
       0.24746762 0.13531941 -0.103648305 0.042470686
000060 a5 76 3f 3d ca 55 a4 3e 8b ce 55 3e 12 56 22 3e
       0.046744008 0.32096702 0.20879571 0.15853146
000070 c1 19 72 3d 34 66 f1 3d f2 23 dc bd 5d 6b ad be
       0.059106592 0.11787072 -0.107490435 -0.33870974
000080 0c ef 9f be 71 cb 2f be 9b d1 a4 bc 4f fe 05 3e
       -0.31237066 -0.1716745 -0.020119479 0.13085292
000090 95 ae 7b 3e 59 fa 90 3e f5 e1 ba 3e 73 be 19 3e
       0.24578317 0.28316 0.36500517 0.15014057
0000a0 55 e2 96 3d 57 b4 5f 3e 2b 8c eb 3e b4 0d bb 3e
       0.07367388 0.21846138 0.46005377 0.36533892
0000b0 d8 84 70 3e 3d d2 3f be 90 1e a0 be 4a 7c ed be
       0.23488176 -0.18732543 -0.31273317 -0.46383888
0000c0 63 22 ee be 21 28 a1 be 5c a5 c8 3e 5a c2 b9 3e
       -0.4651061 -0.31475928 0.3918866 0.3628109
0000d0 85 2d 83 3e e9 93 29 3e c4 24 43 3e 25 4f 45 be
       0.25620666 0.1656033 0.19056994 -0.19268472
0000e0 4e 60 bf be c2 48 c9 be 74 60 8b be f0 85 15 be
       -0.37378162 -0.39313322 -0.27222025 -0.14601874
0000f0 0c 5d 31 3c ea 32 d0 3c 7d 07 80 3e 16 68 72 3e
       0.010825407 0.025414903 0.25005713 0.23672518
000100 ae 1f 35 3e 01 78 57 39 d2 e7 2d 3e 3d 71 8e 3e
       0.17687866 0.00020548703 0.16982964 0.2782077
000110 6c f1 b8 3d 17 26 4e 3e 41 0a 52 be 59 a5 00 be
       0.090304226 0.20131718 -0.20511724 -0.12563075
000120 74 4f c9 be cc 35 c2 be 94 e2 37 be 99 a2 07 bd
       -0.3931843 -0.3793167 -0.17957526 -0.03311405
000130 42 1d 2f be 08 5a d1 3e c9 91 5b 3e 08 16 20 be
       -0.17101005 0.40889 0.21442331 -0.15633404
000140 bc ca 38 be 58 fd ef be 3a 6f fb bd 35 95 20 3f
       -0.18046087 -0.46872973 -0.12277074 0.6272767
000150 76 ab 0c 3e 77 04 fd 3d 70 b7 c7 be 4b dc 40 bf
       0.13737282 0.12354367 -0.3900714 -0.7533614
000160 a3 82 52 3e 39 a3 0b 3f c9 f7 cc 3e e2 94 d1 3e
       0.20557646 0.54545933 0.40032795 0.409339
000170 87 49 81 be 29 9b 1e bf 4f 4c 51 be cc b5 ea bd
       -0.2525141 -0.61955506 -0.20439266 -0.11460456
000180 27 25 fc 3e 73 ff 2e 3e a0 ec 88 bd e0 69 c1 bd
       0.49247095 0.17089634 -0.06685758 -0.09444022
000190 d5 dc 32 be 11 75 37 be f3 37 c6 3e 94 c5 e8 3d
       -0.17467053 -0.17915751 0.3871456 0.1136581
0001a0 91 ae 5c bd 20 f1 34 be 01 21 0a bf 99 5d 07 be
       -0.053877417 -0.17670107 -0.5395661 -0.13219298
0001b0 c6 35 eb 3e 6c 3f c4 3e 6c 47 4c 3e ad 0a 7a be
       0.45939463 0.38329637 0.1994912 -0.24418135
0001c0 47 72 5f bf f6 a1 f0 3d de 0f 00 3f 85 1c db 3e
       -0.8728375 0.117496416 0.5002421 0.42795196
0001d0 d7 6d d5 3e ab b9 e7 be 07 b1 34 bf c3 e4 18 bd
       0.41685364 -0.4525884 -0.7058262 -0.03732754
0001e0 17 04 97 be f2 a8 f1 3e c2 0e c6 3d 1f 5c 89 be
       -0.29495308 0.47199208 0.096707836 -0.26828095
0001f0 2f 52 66 be 51 7c 29 be cd 28 03 be 56 74 e9 3e
       -0.22492288 -0.16551329 -0.12808533 0.4559657
000200 70 46 c9 bd 4d c2 9b be c6 19 80 bd 27 2e a8 be
       -0.09827888 -0.30421677 -0.06254916 -0.3284771
000210 0c 33 2b be a4 87 04 3f 61 8d 4c 3d a9 c6 79 3e
       -0.16718692 0.5176947 0.049939517 0.24392189
000220 a3 0c 4f be a5 36 46 bf 04 b9 34 3e cd ef 00 3f
       -0.20219664 -0.7742713 0.17648703 0.50365907
000230 90 ea e3 3e 07 e0 b7 3e b5 38 71 be 46 50 1b bf
       0.44514894 0.35913107 -0.23556788 -0.6066936
000240 d5 99 56 be 6a 4f a7 bd 23 e2 08 3f 6b de cf 3e
       -0.2095712 -0.08169444 0.5347006 0.4059938
000250 36 ea 33 be b5 d3 55 be 3c fe a7 3e 50 1a ac 3e
       -0.17569813 -0.20881541 0.32811153 0.33613825
000260 c4 aa 0f 3f 02 2a 11 3f ab e1 97 3e b2 ca 5e 3e
       0.5611994 0.56704724 0.29664358 0.2175701
000270 c4 81 93 3e 22 19 cb 3e 9a b9 c4 3e 23 dc 26 3e
       0.2880994 0.39667612 0.38422853 0.16294913
000280 f2 7d d7 3d c9 77 a4 3e 8f 69 7f 3e 49 a0 ba 3d
       0.10522069 0.3212264 0.24942611 0.09112603
000290 e6 d1 cf bd ba a1 6b bd 50 b9 4c be 7b 07 00 bf
       -0.10147457 -0.05752728 -0.19992566 -0.50011414
0002a0 f0 33 c0 be a5 43 9d be ea 96 b6 be 1d b2 d8 be
       -0.37539625 -0.3071567 -0.35662013 -0.4232339
0002b0 8a 25 94 be d5 20 50 be 0a 81 8a be 0c e4 6b bd
       -0.2893489 -0.20325024 -0.27051574 -0.05759053
0002c0 a1 5e 3e 3a 1d f2 16 3e 49 56 c7 bc e7 08 ef bd
       0.00072620256 0.14740796 -0.024333136 -0.1167162
0002d0 91 27 f0 bd 24 36 85 3d de 97 0c be e7 7d 0f be
       -0.11726297 0.06504467 -0.13729808 -0.14012872
0002e0 8c 68 b4 be 2f 55 09 bd 74 1a e2 bd 4f c4 9f be
       -0.35236013 -0.033528503 -0.11040202 -0.3120446
0002f0 98 1b f8 be c9 ba d4 be 74 93 49 be 1b 3e 84 be
       -0.48458552 -0.41548756 -0.19685155 -0.25828633
000300 ad 95 ef be 1c d1 ec be 13 0e 9d be 84 a2 0d be
       -0.4679388 -0.46253288 -0.306748 -0.13831526
000310 02 96 bf bd 71 55 e7 bc 93 3e 5c 3e d6 91 88 3d
       -0.093547836 -0.028238984 0.21508245 0.06668441
000320 bb 21 57 3d 3e fc c4 3d 38 1d ba 3d ff 3d 8b 3d
       0.052522402 0.09618424 0.09087604 0.06798934
000330 6f 7a 0a bd d7 98 3f bd c1 e1 95 bc 7b 66 65 bd
       -0.033808168 -0.04677662 -0.018296124 -0.056005936
000340 0b 33 37 be d1 25 60 bd 8d 5c 19 3e c0 5d 53 3e
       -0.17890565 -0.054723565 0.14976712 0.20641232
000350 df 44 2f be 7f fd 3f be 5d 9b 29 3d 76 ff fd 3d
       -0.17116116 -0.18749045 0.04140793 0.12402241
000360 81 c5 47 be b8 54 75 be 28 73 b3 bd 15 8e ab 3d
       -0.19508936 -0.23958099 -0.08762199 0.08376709
000370 ae 9a 21 3e c1 ca 0c 3e ea e5 f9 3e 30 c5 f0 3e
       0.15781662 0.1374922 0.48808223 0.47025442
000380 56 43 0b 3f 8b 74 ae bd c4 21 53 3d 28 86 3c bb
       0.5439962 -0.085183226 0.051545873 -0.0028766487
000390 c5 9f a7 bd 3a cd 04 bd a7 bc 93 3c 1a 43 3c bc
       -0.081847705 -0.03242228 0.018034292 -0.011490608
0003a0 f7 c1 9c 3d 8f f9 ea 3d f8 c4 a1 3d f2 dd 31 bd
       0.07654183 0.11473381 0.07898897 -0.043424554
0003b0 5a 53 0a 3d ba 8b 19 3e b5 d8 02 3e f1 06 90 3d
       0.033770896 0.14994708 0.1277798 0.07032574
0003c0 63 55 85 bd fb 74 dc 3d 11 84 f6 3d 9f 0d 85 3e
       -0.06510427 0.107645 0.120369084 0.25986955
0003d0 95 38 8d 3e a4 2a f1 3d f0 d7 31 bd 6b 00 82 bb
       0.2758223 0.11775711 -0.043418825 -0.003967335
0003e0 54 4d aa 3d 24 26 83 3e 6a f2 93 bc e6 9c 0f be
       0.083155304 0.25615036 -0.018059928 -0.14024696
0003f0 cd d6 6e be 72 51 05 be 3f 01 3f be f9 a3 f3 bb
       -0.23324127 -0.1301935 -0.18652819 -0.0074353185

bias f4 [6]
000000 11 34 88 be 10 82 8b be c7 47 18 bf 5c 05 5f 3d
       -0.26602224 -0.27247667 -0.59484524 0.05444847
000010 2c 33 b8 3e af 1b 75 be
       0.3597654 -0.23936342

weight f4 [16, 6, 5, 5]
000000 59 0e a3 3c ab 31 11 bd 3f 91 e2 bc 1c 8d fd 3c
       0.019904302 -0.035447758 -0.02765715 0.030951075
000010 77 1a 45 bd 09 b4 ed bd 61 61 54 3d 6d b9 e3 3d
       -0.048120942 -0.116066046 0.05185068 0.111193515
000020 5a 16 bf 3c 3f 57 b7 3c 3e e0 87 bd d1 3f 81 bd
       0.023326088 0.02238047 -0.06634568 -0.06311
000030 ce da 94 bd d9 3f ee bd 33 f4 2a bd ba 1e b1 3c
       -0.07268296 -0.11633272 -0.041736793 0.021621097
000040 99 cd 43 3e 8b 85 48 3e 5c 7e 62 3c 8a 73 9e bd
       0.19121398 0.19582193 0.013824072 -0.07736881
000050 eb 67 57 bd 08 48 3c bd 88 25 91 3c 9f 21 e2 bc
       -0.05258934 -0.04596713 0.017718092 -0.027603922
000060 8b 9c d8 bc 60 54 31 3d ac f8 f4 3c 4a a8 db bd
       -0.026441833 0.043293357 0.029903732 -0.10725458
000070 e0 1f ba bd 73 5b 45 be 30 40 07 3d 46 54 72 bd
       -0.09088111 -0.19273166 0.0330202 -0.0591624
000080 2e 4f 32 be ec 49 82 be ad a2 32 be f9 a8 c5 3c
       -0.17413017 -0.25447023 -0.17444868 0.024128424
000090 7b 49 ba bd 45 31 48 be 4b 49 61 be 4f 9e 00 be
       -0.090960465 -0.19550045 -0.22000615 -0.1256039
0000a0 ca b2 6f bc 27 18 84 be 75 88 aa be bd fc 8f be
       -0.014630029 -0.25799677 -0.33307233 -0.28122512
0000b0 aa bd 60 be 0a 5d a4 3d 03 1f 26 3d ab 65 b2 bd
       -0.21947351 0.08025558 0.04055692 -0.08710798
0000c0 47 d1 a4 be ab 25 ad be db 18 7b 3e d8 18 d1 3d
       -0.32190916 -0.338178 0.245212 0.10209817
0000d0 8c a5 68 3d 4f bd 6d 3d 8c 8b 0f 3e e1 bc 8c 3e
       0.056798503 0.058041867 0.14018077 0.27487853
0000e0 b6 c8 0d 3e bd b8 8e bd 89 e7 36 be 82 2d 14 bd
       0.13846096 -0.0696883 -0.17861761 -0.036176212
0000f0 0a 0b 19 3e 0b a2 5f 3d a6 2e d1 3d 6a 04 44 3e
       0.14945617 0.054597896 0.102139756 0.19142309
000100 81 f6 b9 3d f8 66 07 3e 18 e7 ac bd f5 0b 3e bd
       0.0908022 0.13222873 -0.08442515 -0.046398122
000110 d7 1c 4a bd 88 e9 82 bc de 37 aa 3e 21 1f 94 3e
       -0.04934391 -0.015980497 0.33245748 0.2893
000120 d1 22 67 3e cc 55 38 3e 9d e7 2a 3c 32 00 49 3e
       0.22571875 0.18001479 0.0104311975 0.19628981
000130 48 b1 48 3d 03 49 1e 3d b4 0e 45 bd b9 04 d7 bd
       0.048997194 0.03864385 -0.048109725 -0.10498948
000140 39 fa e2 3d eb 02 7f 3d 1a a6 98 bd 0e a3 8b bd
       0.110828824 0.062258642 -0.07453556 -0.068182096
000150 d8 a9 5a bd c2 b3 35 bd 11 50 b7 bd 17 de 83 bd
       -0.053384632 -0.044360884 -0.08950818 -0.06438845
000160 42 22 7a bd 71 2d a1 bd 0a 79 c3 bd ee d6 64 bd
       -0.061067827 -0.078699954 -0.09544571 -0.055869035
000170 66 76 e6 bd 8a 78 bf bd a1 d0 da bd 5d a4 0e bd
       -0.112530515 -0.09349163 -0.10684324 -0.034824718
000180 c4 e7 6d bd eb be 19 bd 3e 50 db 3c 04 2d e6 bd
       -0.058082357 -0.03753559 0.02677166 -0.11239055
000190 6d 5e 1f be 13 3f cc bd 83 68 2d 3d 81 9b 2e 3d
       -0.15563364 -0.09972968 0.042336 0.04262877
0001a0 ec 3c 27 3e c1 a1 1c be 89 d8 99 bd 6d d2 51 ba
       0.16331834 -0.15296079 -0.07512004 -0.0008004073
0001b0 55 5a 90 3d fb 95 35 3e 11 a1 c0 bd a0 ee c1 3b
       0.070484795 0.17732994 -0.09405721 0.005918339
0001c0 39 0b 1c 3d 4d 11 a5 bd 17 9f 32 3e 9b 2f d9 bc
       0.03809664 -0.080599405 0.174435 -0.026511958
0001d0 c5 29 a3 bd 78 d6 8f bc ff ac c3 bd e0 68 27 3e
       -0.07966951 -0.017558321 -0.09554481 0.163486
0001e0 67 95 d3 3b c9 8a 14 3e 4c 48 62 3e 0c 46 87 3e
       0.006457019 0.14506067 0.22097892 0.2642063
0001f0 9e e8 b5 3e b6 c5 ad 3d 17 e7 03 3e df 02 f9 3d
       0.35529035 0.08484976 0.12881123 0.12158751
000200 57 64 e0 bc bd 35 bd 3d 25 b8 ad 3d b2 45 34 3d
       -0.027391596 0.092387654 0.084823884 0.04401178
000210 da ef 88 3d a5 3f e8 3c 59 1e 95 3e fd 4c 97 3d
       0.06686373 0.02835066 0.29124716 0.07387731
000220 52 95 18 bd 0d cb 8a bd 07 e8 95 3d 2d 14 50 3e
       -0.037251778 -0.0677701 0.07319646 0.20320196
000230 7d 40 e3 bd 1f a6 77 bd 04 36 81 3d 1b 3a a6 bd
       -0.110962845 -0.06046116 0.06309131 -0.081165515
000240 4b e1 d5 3d 8e 52 5c 3c ed 4b e3 bc cf 05 a7 bd
       0.10443362 0.013447417 -0.027746165 -0.08155405
000250 74 2d f1 bd 18 d9 9f 3c 56 36 01 3d 28 ef 61 bc
       -0.117762476 0.019512698 0.03154596 -0.013789929
000260 15 cb 65 bd 07 fd d2 bc 72 a1 49 3e 75 3b 58 3d
       -0.056101877 -0.025755418 0.19690493 0.052791078
000270 0f 19 24 be 8b c0 f1 bb 5e 20 52 3e c3 e4 38 3e
       -0.16025184 -0.0073776892 0.2052016 0.18056016
000280 c7 14 f6 bd 6c b7 b0 3d 59 2c 35 3e 76 2e 16 3d
       -0.12015682 0.08628735 0.17692699 0.036665402
000290 4b 82 42 3d 19 47 6f 3e 49 43 74 3d a2 56 be 3d
       0.04748754 0.23366965 0.05963448 0.09293868
0002a0 fd 69 82 3c f5 93 64 3d 74 5a 85 3d bd cb 08 be
       0.01591968 0.055805165 0.06511393 -0.1335897
0002b0 00 5d ce 3d 3b 9c ce 3d 76 55 ad 3d c4 0d ab 3d
       0.10076332 0.10088392 0.08463566 0.08352235
0002c0 0c 9a 7c 3e 0e 7d 24 3d 23 02 9d bd 5a e2 c5 bd
       0.24668139 0.040158324 -0.07666423 -0.09662314
0002d0 ef b4 35 3d bf dc a5 bd 3d de 35 be 67 15 5c 3c
       0.044362005 -0.080987446 -0.17760558 0.013432837
0002e0 5d 6d d3 3d 25 7f 93 be 08 01 fd bd b8 ac da bd
       0.10323594 -0.2880794 -0.12353712 -0.10677475
0002f0 43 29 ba b9 72 8c 9b bd 42 ea 9d bd 43 d9 6b 3c
       -0.00035507427 -0.07595147 -0.07710697 0.014395061
000300 ea 41 4b be 47 7c ac bc fa b9 a4 3d ec 0d a9 3d
       -0.19849363 -0.021055354 0.08043285 0.082546085
000310 a4 24 39 bd ba 50 84 3d 58 5c 8d 3d 01 70 fa 3d
       -0.04520096 0.0646071 0.06902379 0.12228394
000320 f6 2a 49 be 03 52 0e be c5 1a 3b 3e 52 70 8b 3c
       -0.19645295 -0.13898472 0.1827193 0.017021332
000330 be a8 5f bc 63 9a d1 bd d9 ba 14 3e 80 6b f4 3c
       -0.013651071 -0.10234525 0.14524402 0.029836416
000340 be 3d 29 be a2 85 2d be 76 e7 4a 3e 2f e2 52 bc
       -0.16527459 -0.16945508 0.19814858 -0.012871309
000350 21 f4 c8 bd db 3b 28 be 82 e5 47 be b2 46 95 bd
       -0.09812189 -0.16429083 -0.19521144 -0.07288875
000360 a7 43 5c be 12 ad 34 be 56 f6 65 be 15 da 8b be
       -0.21510182 -0.17644146 -0.22457251 -0.2731482
000370 4a 38 18 be 58 2e f2 bc 3c 5d 1f be 0d c8 b3 bd
       -0.14865223 -0.029563114 -0.1556291 -0.08778391
000380 f9 14 23 be 37 d0 b7 3d 98 2f 0c 3e c4 57 0a bd
       -0.15925969 0.08975261 0.1369003 -0.033775106
000390 37 07 3e 3c d5 67 0b 3d 3f ac 00 3d f6 93 40 3c
       0.0115984 0.03403457 0.031414267 0.011754027
0003a0 df c4 fe bd 0d 5c 0d be 79 c2 a1 bd 15 5e 47 bd
       -0.12439894 -0.13804646 -0.07898421 -0.048673708
0003b0 0e 7b bc bd 79 a7 90 bd 30 52 5d be 9f c7 3d be
       -0.09203158 -0.07063193 -0.21613383 -0.1853318
0003c0 9c 1a 05 be fb 9a 2c be 28 80 d7 bd 33 16 13 be
       -0.12998432 -0.16855995 -0.10522491 -0.14363937
0003d0 0d fa dc bd b3 87 5c be 6d 69 6b be cf c0 f6 bd
       -0.10789881 -0.2153614 -0.22989435 -0.12048494
0003e0 f2 5e 94 bd fd 2d 43 bd d5 43 0f 3e fa 41 ac 3d
       -0.07244672 -0.04765128 0.1399072 0.084110215
0003f0 a5 45 d3 3c 49 7c 87 3d 1c 26 18 bd 23 f2 76 3c
       0.025790045 0.066155024 -0.03714572 0.015072378

bias f4 [16]
000000 bd fa e8 bd 18 3c 88 3f 70 eb bd bd aa 37 1a be
       -0.113759495 1.0643339 -0.09273422 -0.15060297
000010 e8 af 04 be ce df a9 be 5b 0d 57 3f 9e e8 6d be
       -0.12957728 -0.33178562 0.84004754 -0.23233268
000020 3f 73 b5 3c 83 68 cf bd 51 a9 cb be ba 54 17 be
       0.02214968 -0.10127356 -0.39777616 -0.14778414
000030 cb 43 0f 3f 38 74 7a bf 20 a9 8d 3f 7c 6e 8d be
       0.5596282 -0.97833586 1.1067238 -0.27623355

weight f4 [120, 400]
000000 01 69 83 bd 68 fd 31 bd 6a 19 0d bd f5 d3 e3 bc
       -0.06416512 -0.043454558 -0.034448065 -0.02781103
000010 00 37 ae bd c0 4c 3c bd b6 89 02 3c c7 52 1c 3c
       -0.08506584 -0.045971632 0.007967403 0.00954122
000020 9f ca 78 bd 74 88 fa bb b1 a6 81 bd dc 7b d5 3c
       -0.06074011 -0.007645661 -0.06330622 0.026060037
000030 31 15 30 bc a6 46 7d 3c 2f 41 dd bb 7f a5 73 bd
       -0.01074724 0.015458738 -0.0067521553 -0.059484
000040 25 9e c3 bd 90 df 39 bd 7b aa 44 bc e4 10 04 be
       -0.09551648 -0.04537922 -0.012003536 -0.12897068
000050 ed cc 46 bd 72 9c 15 bc 81 06 6c bc 33 0d f6 bd
       -0.048535276 -0.009131538 -0.0144058475 -0.12014236
000060 10 65 1b be 37 97 8a 3d 55 de 61 3c 99 db 4a 3d
       -0.15175271 0.06767123 0.013785918 0.04952583
000070 13 2e 35 3d 03 fc 0c bd 97 66 4e 3d 0d 14 55 bc
       0.044233393 -0.034420025 0.050390806 -0.013005269
000080 ad b7 67 bd f8 8d 70 bd 38 9c 34 bd 85 16 01 ba
       -0.05657165 -0.058729142 -0.044094294 -0.0004924315
000090 a6 ba f8 3c 09 38 c9 bb c3 dc d5 3b c1 b7 c3 3c
       0.030362438 -0.006140713 0.006526561 0.023891332
0000a0 67 fe d3 3c 8d e1 a9 3d 0f ad 8c 3c ca 43 5d 3b
       0.025878144 0.082949735 0.017172365 0.003376233
0000b0 13 7c c5 3d ce 98 63 3d f7 d4 ce 3d 80 54 17 3e
       0.09642806 0.055565648 0.100992136 0.14778328
0000c0 e1 99 28 3d 17 07 21 3e 35 75 6e bd 40 af e1 3c
       0.041162375 0.15725361 -0.058217246 0.027549386
0000d0 76 4a 9f bc ab bc 54 bd c0 23 d3 bd 08 f1 40 3d
       -0.019444685 -0.05193774 -0.10309553 0.047104865
0000e0 86 92 c0 3c 5c 55 65 bb 56 f8 16 bd c1 a9 88 bd
       0.023507368 -0.0034993505 -0.036857925 -0.06673003
0000f0 10 7a 18 3d 0e 07 54 bc c1 6b d5 bb 87 15 be bb
       0.037225783 -0.012941135 -0.0065130894 -0.005800906
000100 c0 24 fe 3c dc 88 11 3e fc 60 ba 3d 80 f4 b6 3d
       0.031023383 0.14212364 0.091005296 0.089333534
000110 ee 28 c1 3d 13 5a 21 3c 3d 23 4f 3d d0 2b 43 bc
       0.09431635 0.0098481355 0.050570715 -0.011912301
000120 cf 54 c1 3c 6e 62 b6 3c 1c 16 57 bd 08 34 4f bd
       0.02360001 0.022263732 -0.05251132 -0.05058673
000130 d1 15 ae 3b 9d 69 3f 3d 00 6a f5 bc 57 51 ea bb
       0.0053126593 0.04673158 -0.029957771 -0.0071508097
000140 72 08 13 3d 46 fc 10 3d 02 7e 5d 3d b3 ab 4c 3c
       0.035896726 0.035396837 0.05407525 0.012492108
000150 d5 b2 89 3b 0d ce ef bc a3 db a7 3d 93 b1 c4 3b
       0.0042022266 -0.029273057 0.08196189 0.006002614
000160 0d 37 cc bc ea 0c e9 bc 51 d9 12 bd 3a 5b 75 3d
       -0.024928594 -0.02844854 -0.03585178 0.059901454
000170 e4 bf 43 bc c9 3c 6f bd a7 67 85 bd cf 7f 87 bd
       -0.011947606 -0.05840758 -0.06513911 -0.066161744
000180 af 9c 68 bd 2d aa cd bc 12 52 28 bd cb 92 70 bd
       -0.05679005 -0.02510556 -0.041093893 -0.058733743
000190 10 4f 4c 3c 0f b1 15 bd 99 90 5d 3d 34 d9 31 bd
       0.012470022 -0.03654581 0.054092977 -0.04342003
0001a0 52 77 81 bd 4d d7 96 3c ad 80 a4 3c f4 4d e2 3b
       -0.06321587 0.01841321 0.020080889 0.0069062654
0001b0 97 8a 25 3d e3 91 c5 3b b7 08 b9 3c 2f 1d 82 3c
       0.040415373 0.006029354 0.022587163 0.015883056
0001c0 31 d9 f0 3c fa 2a 3a 3d d8 72 01 3c 47 1c 7a 3b
       0.02940044 0.045451142 0.007900916 0.0038163827
0001d0 61 63 a6 3d 76 f2 03 3d 3f b9 f3 3b 85 3b 7a 3c
       0.08124424 0.03221365 0.0074378545 0.01527298
0001e0 ee 60 dc 3a 04 d0 bd bc be 71 86 3d 24 db 71 bb
       0.0016813555 -0.023170479 0.06564663 -0.00369043
0001f0 7b 98 82 bc c8 a7 48 bd 72 e7 58 bd 2e d5 79 bd
       -0.015941849 -0.048988134 -0.0529551 -0.06099432
000200 cd 6e 9f 3b 47 1a ad bc 45 52 b9 bd 3e bd a4 bd
       0.0048655034 -0.021130694 -0.09048895 -0.080439076
000210 ec 48 cd bd bb 49 5b 3d 02 0c 2a bd 32 e6 a5 bc
       -0.10023674 0.05353711 -0.041515358 -0.020251367
000220 26 53 7c bd f5 d8 58 bd 66 e9 bd 3c 42 e4 72 3d
       -0.061602734 -0.05294128 0.023182582 0.059299715
000230 5b 88 1b 3d 41 fd 80 3c c8 07 21 3d 0a 7e 86 bd
       0.037971836 0.01574576 0.03931406 -0.06567009
000240 03 89 22 3d 43 16 a8 3d 71 71 f6 3d d3 c3 05 3e
       0.039681446 0.08207371 0.12033356 0.13062982
000250 06 50 01 3e 0c 52 1b 3d 9e a1 74 3d c7 39 22 3d
       0.12628183 0.037920043 0.059724443 0.039605882
000260 e3 4e a9 3c 1c aa 4a 3d ca c9 22 3d ac 28 0b bc
       0.020667499 0.049478635 0.039743222 -0.008493584
000270 d7 71 4b 3c 65 45 15 bd 1d c1 20 bd f0 b5 80 3b
       0.012417278 -0.036443133 -0.039246667 0.0039279386
000280 a0 f8 86 bc 8b 72 09 bd 14 1a 8d ba fa 16 01 bc
       -0.016475976 -0.033556502 -0.0010765218 -0.007879013
000290 72 04 60 bd 9d ae a4 bc 23 e8 64 bb 29 5e 44 bd
       -0.05469174 -0.020102793 -0.0034928403 -0.04794136
0002a0 70 e3 07 bc 94 cb 96 3b c5 fe 86 3b 7e c6 fc bc
       -0.008293971 0.004601905 0.0041197264 -0.030856367
0002b0 45 e1 83 bc be 5f f1 bc 5f b0 01 bd fb 25 c3 bb
       -0.016098628 -0.029464599 -0.03166234 -0.0059554554
0002c0 d0 1b 86 3d 2b 67 95 3c dc 46 d9 bc 25 8f 02 bd
       0.065482736 0.01823767 -0.026523046 -0.031874795
0002d0 94 93 43 3b 5b 6c 80 3d a1 4d ca 3c 24 b5 6c bd
       0.0029842602 0.06270667 0.02469522 -0.057789937
0002e0 b1 b0 00 bd e7 c8 0f bc dd 1e e8 bd d7 92 0e bd
       -0.031418506 -0.008775926 -0.11334012 -0.034808006
0002f0 28 8e 88 bd 70 78 52 37 ff b3 c1 bc 2b b1 07 be
       -0.06667739 1.2545017e-05 -0.0236454 -0.13251178
000300 c0 d3 ae bd f8 0f 8e bd 2a 44 6a bd 3d 50 09 bd
       -0.08536482 -0.069366395 -0.057193913 -0.033523787
000310 df 92 a3 3c d6 6f 86 bc ab fa ee bc fe f3 10 3d
       0.019967495 -0.01641075 -0.029172262 0.03538894
000320 62 7e ca 3c 37 1d 88 3d 00 88 4e 3d 32 e7 f2 ba
       0.024718467 0.06646197 0.05042267 -0.0018532036
000330 35 66 63 3d f0 fc bc 3a 2e 4c 95 3d ae 36 ed 3c
       0.055517394 0.0014418643 0.07289921 0.028956737
000340 b0 12 c2 3c 53 58 30 3b 69 3f 85 bd cc ec 85 3d
       0.023690552 0.0026908114 -0.06506235 0.06539306
000350 86 1b 3d 3d 6a 9f 30 3d d8 b3 68 3c dd 79 97 bc
       0.046168827 0.04312078 0.014203034 -0.018490726
000360 6a c0 97 3a cd 18 31 bc 9b 2a 77 bc 07 07 93 3c
       0.001157773 -0.010809136 -0.0150858415 0.017947687
000370 cf 25 db bc 06 90 a3 bd a5 36 10 bd 8c cb 84 bd
       -0.026751427 -0.07986455 -0.035208363 -0.06484136
000380 85 8b 2d 3d 82 ba 44 3d b5 69 1f 3d 74 40 18 bc
       0.042369384 0.04802943 0.03891917 -0.009292711
000390 15 ec 26 3b 01 90 52 3d fa 1d 7e bd 0f bf 24 bd
       0.0025470306 0.051406864 -0.062040307 -0.04022127
0003a0 c7 65 3c bd f8 37 78 bd cd 10 94 bb ae 5d 85 bd
       -0.0459955 -0.06060025 -0.0045186044 -0.065120086
0003b0 30 11 3f bd c5 36 e3 ba 47 06 7f bd 7c 56 c6 bd
       -0.04664725 -0.0017335048 -0.062261846 -0.09684464
0003c0 b3 f7 75 bd b4 ff db bd 42 7c cb bd f7 5a e0 bd
       -0.060050678 -0.10742131 -0.0993581 -0.1095485
0003d0 4e bf 05 be 36 b5 1a be 88 60 12 be cf 0e e7 bd
       -0.13061258 -0.15108189 -0.14294636 -0.112821214
0003e0 3e f5 14 be 67 ff ee bd 1a 70 8d 3d b4 c6 b4 3d
       -0.14546677 -0.11669808 0.06906147 0.08826962
0003f0 b6 dc 60 3d ed e8 9a 3d d8 f3 02 3e 22 df 9b 3d
       0.054897986 0.07563958 0.12788332 0.076109186

bias f4 [120]
000000 54 f9 11 3d 84 3c 6f bd c0 7b c1 bb f7 e1 ba 3d
       0.03563817 -0.05840732 -0.0059046447 0.091251306
000010 28 0a 06 3e ae 33 1b be a7 e3 42 bd 6f 25 54 3c
       0.13089812 -0.15156433 -0.047580387 0.012948378
000020 19 c7 8d 3c d6 53 0d 3e cc 8e 88 3c 6c 7e 14 3e
       0.017306851 0.13801512 0.016669653 0.14501351
000030 90 70 1d bd ec a3 9e bc a4 f3 83 bd 1b 80 3c bd
       -0.038437426 -0.019365273 -0.06442955 -0.04602061
000040 3b 62 19 bc c5 bc 38 3e aa 62 c9 3c 9b 33 58 3e
       -0.009361799 0.1804076 0.02458318 0.21113436
000050 90 47 84 bc a3 48 d0 bd 51 6a aa 3d 9e 2f 5d bd
       -0.016147405 -0.10170104 0.083210595 -0.05400049
000060 0c 97 39 3e c3 58 93 bd 8a 9c 18 3e 8c fe d5 3d
       0.18124026 -0.07194664 0.14903465 0.104489416
000070 54 6b f7 3b 34 f6 5f bd 37 f6 7b 3d 85 53 33 3e
       0.0075506363 -0.054678157 0.061514106 0.17512329
000080 62 69 20 bb 26 93 14 3e d9 9a e4 3d 36 c6 12 3d
       -0.0024476876 0.14509258 0.11162347 0.03583356
000090 29 1e 47 bd 87 5d 10 bc 5b 58 02 bd 23 0e f5 3d
       -0.048612747 -0.008811361 -0.031822544 0.11965587
0000a0 0f 2b d6 3b a3 2c 9c 3d 6a 7a 1e 3e 42 0a ec bc
       0.0065358947 0.07625701 0.15476385 -0.028813485
0000b0 b0 28 53 bd f8 f0 00 ba 30 c5 7b 3d 50 98 95 3c
       -0.051552474 -0.00049187196 0.06146735 0.018261105
0000c0 66 11 a0 3d fe 69 3c 3d a4 f7 88 3d 8f 71 95 3d
       0.078158185 0.04599952 0.06687859 0.0729705
0000d0 97 cc 35 bc 51 13 fa bc 07 83 13 3e 97 2d 28 bd
       -0.011096141 -0.030526789 0.14405452 -0.041059103
0000e0 43 b8 2d be 19 25 dc 3c f2 72 a7 3d 0c 00 c4 bd
       -0.16964822 0.026873158 0.08176221 -0.095703214
0000f0 5c 07 05 3c 45 99 d5 3d fc 86 16 3e 47 9d c3 bd
       0.00811943 0.104296245 0.1469993 -0.09551483
000100 5b 17 9f bd 85 13 21 3e a3 f4 71 be 37 c7 06 3d
       -0.077681266 0.15730102 -0.23628478 0.03290483
000110 c5 3c 7e bd 3a 96 0c 3e 99 b2 20 3c 8c 56 14 bd
       -0.062069673 0.13729182 0.009808206 -0.03621535
000120 4b a2 df 3d da 56 46 3c e0 34 e0 bc 49 a8 08 bd
       0.10919627 0.012105668 -0.027368963 -0.033363614
000130 b0 f7 68 bd f1 d9 22 bd a2 3d 45 3e b5 91 23 3e
       -0.05687684 -0.039758626 0.19261792 0.15973552
000140 e8 5b 35 3e 23 ae 04 bd fd 66 03 be 2b e1 25 bc
       0.1771084 -0.032392632 -0.12832256 -0.010124485
000150 80 15 35 be aa 1d 93 3d 6a 90 59 3d 6d d7 96 3c
       -0.17683983 0.07183392 0.05311624 0.01841327
000160 6c 98 d7 3b 5a 11 c8 3d 67 92 89 3d 1d 8f 55 be
       0.0065794494 0.097689345 0.06717377 -0.20855375
000170 d9 43 fe ba 5e 9d 14 bb fd b6 6a 3e 87 b7 34 3e
       -0.0019398882 -0.0022676806 0.22921367 0.17648135
000180 6f fd ba 3d 03 35 88 ba 25 a4 8e bd b7 45 c9 3d
       0.0913037 -0.0010391775 -0.06964902 0.0982775
000190 f2 e4 dc 3c c4 fc ce 3d 41 fa 06 3e 07 9a cd bd
       0.026964638 0.10106805 0.13181402 -0.10039144
0001a0 ae 8e 5a bd 7d 7e d1 3d 39 7f 5a 3d 9c 65 d9 3d
       -0.053358726 0.10229204 0.053343985 0.106150836
0001b0 e7 a4 ed bc e8 bc 6d bd 56 69 06 bd 6f 98 d7 bc
       -0.029009296 -0.058041483 -0.0328153 -0.026317803
0001c0 9a be c7 bc 77 4d f0 bc b6 92 ca 3d 16 64 00 3d
       -0.024382878 -0.029333813 0.09891264 0.03134545
0001d0 b7 bb 9a bd 34 48 cf bd 1b 2b 32 bd 8d b7 96 3d
       -0.07555335 -0.101211935 -0.04349814 0.07359228

weight f4 [84, 120]
000000 fe 7e fc bd 5a e9 9e 3c dd cc 51 3d 36 85 b4 bd
       -0.12328909 0.01939838 0.051220763 -0.088144705
000010 8b de cd 3c 9e 2a 20 be f4 4d 0f 3e b9 bf 7e bd
       0.02513053 -0.15641257 0.1399458 -0.06219456
000020 37 8a c4 3d e9 e1 db 3c f6 c1 62 3d c9 c0 ab 3c
       0.09596675 0.02684112 0.055360757 0.02096595
000030 05 bf 9b 3c 02 9d a3 bd 96 a5 89 3d c8 0e b7 3d
       0.019011984 -0.07988931 0.06721036 0.08938366
000040 58 5b 08 3d 86 57 6b 3d df a2 76 3d 7a b3 15 bd
       0.033290237 0.057456516 0.06021392 -0.036548115
000050 a9 9e 48 3d cd 6e 0c be b3 5c c0 3d a9 ad 64 bd
       0.048979435 -0.13714142 0.09392681 -0.055829678
000060 22 3f 63 bd 1b b7 02 3e f1 00 e6 3b 92 9a 8f 3d
       -0.05548013 0.12765162 0.007019155 0.07011904
000070 e1 79 40 3d f3 c8 a2 bd 0e 6c 3e bc 04 c8 ef 3c
       0.046991233 -0.07948484 -0.011622442 0.02927018
000080 0e f0 08 3d 8b 2d ce 3d 39 95 01 bd 6b 05 9b bd
       0.03343206 0.100672804 -0.03163645 -0.07569393
000090 2a 3e d3 bc 30 d2 b3 3d 6b 9d ad 3d 01 87 d8 bd
       -0.025786478 0.087803245 0.08477291 -0.10572625
0000a0 6f 9e a1 bd 89 04 5b 3e 75 b6 99 3d 4d f0 39 be
       -0.07891547 0.21388449 0.07505504 -0.18158074
0000b0 36 b0 a4 bd 3e 26 3a 3c 27 d5 ea bb ba 9b a0 bd
       -0.08041422 0.011361657 -0.007166523 -0.078422025
0000c0 6f 50 19 3d d8 90 b5 bd c6 cc 11 bd ab ee 94 3c
       0.037430223 -0.088655174 -0.035595678 0.018180212
0000d0 42 02 fa bd 3e 9f 89 3d a0 97 91 3d cd 58 ba 3d
       -0.12207462 0.06719826 0.07108998 0.09098969
0000e0 79 d6 48 bb 56 a7 87 bd 34 0e 9b 3d 3b 82 24 bd
       -0.0030645414 -0.06623714 0.075710684 -0.04016326
0000f0 d6 7d 60 bc 6e 04 97 bd 24 a1 b6 bc fc fd f9 3b
       -0.013701877 -0.07373892 -0.022293635 0.0076291543
000100 ef 48 b3 3d 5f 1b 7f 3c 6a df 33 3e a0 74 e2 3d
       0.08754145 0.015570491 0.17565694 0.11057401
000110 3b 78 39 3d e5 56 93 bd 47 e1 6d bd 30 26 87 bd
       0.045280676 -0.07194308 -0.05807617 -0.065990806
000120 78 9e d4 bd 90 4c eb 3d 42 d5 36 be bf 4f 86 bd
       -0.10381788 0.114892125 -0.17854789 -0.06558179
000130 52 e0 0e 3d f5 32 f4 3d 2a 3c 34 bd 98 ba 39 3d
       0.034881897 0.11923782 -0.04400269 0.045343965
000140 c4 98 cb 3b 4d 7c c4 bd f6 19 d1 bc 58 2c 90 bc
       0.0062132794 -0.09594021 -0.025525074 -0.01759927
000150 29 32 1c 3d 94 d8 8d bc 75 64 28 bd 4d 74 b6 3d
       0.038133774 -0.017315187 -0.04111143 0.08908901
000160 91 17 37 bc 87 a3 bc bb f9 57 3a bd bd 55 27 3e
       -0.011175052 -0.0057567987 -0.045494054 0.163413
000170 f6 e3 ac bd 6d 23 82 3d cc 75 55 bd 03 4c 35 be
       -0.084419176 0.06354413 -0.052114293 -0.17704777
000180 86 fe a9 bc a1 ce a8 3c e5 53 29 3c f6 6c 9a 3c
       -0.020751249 0.02060634 0.010334943 0.018850785
000190 c8 2b 16 3e f3 b9 9f 3d 40 0f c0 3d a8 bc f7 bd
       0.14665139 0.07799139 0.09377909 -0.1209653
0001a0 ce 04 d4 3c 3a e7 09 bc 29 b7 6d bd 94 53 0a be
       0.025881197 -0.008416945 -0.058036003 -0.13508445
0001b0 2c fb 81 bd 3a b2 b5 bd ac a9 a8 3c 0d bb 36 3d
       -0.06346735 -0.08871885 0.020588718 0.04461198
0001c0 7f b5 5c 3d e2 12 43 3e d4 4a 26 3d 99 7b cd 3d
       0.053884026 0.19050172 0.040598705 0.1003334
0001d0 85 92 93 bd ee aa 66 3e f0 4d 67 bb 22 ca ab bc
       -0.07205681 0.22526142 -0.0035294257 -0.020970408
0001e0 bc 89 80 3d 18 24 76 3d c9 5a 77 bd 68 e3 8f 3d
       0.06276271 0.060093015 -0.060389314 0.07025796
0001f0 5c 0a c9 bd 5b b5 e4 bd f6 f7 3b 3d 61 d7 db 3d
       -0.09816429 -0.11167403 0.04589077 0.1073444
000200 bd 93 f4 bc 60 5a 7a 3d 6e 4c 1d 3d a2 e1 d0 3d
       -0.029855603 0.061121345 0.038402967 0.10199286
000210 2e df 8d 3d 6f 5c 7e bd 75 d4 95 3c 6f fa 3d 3c
       0.06927334 -0.06209987 0.018289784 0.011595353
000220 f7 84 b1 bd 21 ce 8e 3d 45 98 92 bd 76 fb 9a bd
       -0.08667939 0.0697291 -0.07157949 -0.075674936
000230 7f 0d 53 bd 8e 7d 1f be 8b 04 68 3d 3e 8e 19 be
       -0.051526543 -0.15575239 0.056644958 -0.14995667
000240 f6 f4 b7 3d ab 96 1b bd d9 bf d4 3c 8b 5d 89 bd
       0.089822695 -0.037985485 0.025970386 -0.06707295
000250 b7 8d 1c bc 41 59 0e 3d 57 09 d3 3d d6 43 00 3d
       -0.009555272 0.034753088 0.10304516 0.031314693
000260 ab 75 0f 3d d9 63 ab 3d da a4 4f bd 2d 8a 59 bc
       0.035024326 0.08368654 -0.050694324 -0.013277573
000270 2b 52 1d be 75 8b a4 3d 65 2b 66 bd 36 23 18 be
       -0.15363376 0.08034412 -0.056193728 -0.14857182
000280 05 3e 31 3c e6 b6 05 3e ae bb 7b 3d 77 a1 0c bd
       0.010818009 0.13058051 0.061458282 -0.034333672
000290 22 24 19 3d 8b 0b d0 bc a8 f3 97 3d e6 32 a7 3d
       0.037387975 -0.02539613 0.074195206 0.08164005
0002a0 f3 04 82 bd 8f 9d f0 bc 00 4c 79 bd b5 55 c2 3c
       -0.063486 -0.029372005 -0.060863495 0.023722509
0002b0 c8 9d b6 bd c4 ea 85 bd 0e de fc 3c 44 f3 ae bd
       -0.08916813 -0.065389186 0.030867603 -0.08542493
0002c0 4a 2d 18 be 9a 82 df bd e9 88 c8 3b f4 a7 69 bc
       -0.14861026 -0.10913582 0.0061198366 -0.014261235
0002d0 d4 14 b1 3c 4f 2b 08 3d 36 cd 3b bb 75 e4 a5 bd
       0.021616377 0.033244427 -0.002865625 -0.08100215
0002e0 13 45 38 ba fe df 1b 3d 99 69 e6 bd 04 60 ef 3c
       -0.0007029336 0.038055412 -0.1125061 0.029220589
0002f0 5a fe 8c bc 84 4f f3 3d e9 66 7a 3d 0a 6f 85 3c
       -0.017211128 0.11880401 0.0611333 0.0162883
000300 b9 2b 80 3d e8 91 03 be 9f ed 7c bc eb 9c 29 bd
       0.062583394 -0.12848628 -0.015437513 -0.041409414
000310 cb a0 38 bd 54 96 8f 3c ae 3d c6 3d c9 78 93 3d
       -0.04507522 0.017527737 0.09679733 0.07200772
000320 b5 0f 99 3d f9 e2 8f bd 7f e2 37 be da 6c 9b 3c
       0.07473699 -0.070257135 -0.17957495 0.018972803
000330 3e 73 03 be 15 f7 76 bd a9 0f be 3d 21 30 d1 3c
       -0.1283693 -0.06029423 0.09280331 0.025535645
000340 6f ad b7 bd c1 f6 5c bb 02 c5 97 3d cc 28 cc 3b
       -0.08968627 -0.0033716413 0.07410623 0.0062304493
000350 88 68 0c bd a7 1a be bd f9 b3 f5 3d 55 b9 29 3d
       -0.034279376 -0.09282427 0.11997218 0.041436512
000360 db fc 8b 3d 5c 5f 84 bd 46 fe 8d bd 19 2c 94 bc
       0.06835338 -0.06463501 -0.069332644 -0.018087434
000370 74 a7 ce 3a 28 e1 85 3d f5 f1 26 3e 57 65 55 bd
       0.0015766458 0.06537086 0.16303237 -0.0520986
000380 3a 5c ec bc 4b fe 0f bd a6 06 4f bd fc 3a 3a 3d
       -0.02885257 -0.035154622 -0.05054345 0.045466408
000390 38 11 ee bd ca aa b1 bd f6 34 84 3d ac a0 b4 bd
       -0.11624378 -0.086751536 0.06455414 -0.08819708
0003a0 09 a9 0b bd 64 dc 6a 3c 72 23 1b 3e 8c 76 da 3b
       -0.03409675 0.014334772 0.1515024 0.006666964
0003b0 6b 63 3c bd e6 ea 2f bc 27 99 6c bd e6 f1 d3 3d
       -0.04599325 -0.0107371565 -0.057763245 0.10348873
0003c0 cd 6f de bb fc c4 7b bd e8 9c ac bc 81 f1 9a bc
       -0.00678823 -0.061467156 -0.021070912 -0.018913986
0003d0 d5 e5 cb bc 6f 7f 4f bd d3 6e da bd cd 00 9d bd
       -0.024889866 -0.05065864 -0.10665669 -0.07666168
0003e0 d5 65 1b be df 4d 72 bd 0c 9f b4 3d 0e 1d d6 bd
       -0.15175565 -0.059156295 0.08819398 -0.104547605
0003f0 db 49 70 3d 9c 4c 64 3d 39 98 06 bd f6 fe 24 bd
       0.058664184 0.055737123 -0.032860015 -0.040282212

bias f4 [84]
000000 25 11 f2 bd 91 ae 45 3e 62 26 91 3d e1 cd 89 3e
       -0.11819676 0.19304873 0.07087399 0.26914886
000010 ba 11 68 3d aa 31 e3 bc be 41 b0 3d f1 b6 b6 bd
       0.05665753 -0.027733643 0.08606289 -0.08921612
000020 9e 26 b2 3e 93 97 df 3d 13 a8 cb 3d 83 c7 39 be
       0.34795088 0.10917582 0.09944167 -0.18142514
000030 0e d2 71 3b 74 b6 80 bd d0 77 f7 3e e6 31 92 3d
       0.0036898884 -0.062848 0.48333597 0.071384236
000040 64 45 07 3e 65 df 38 3e 9e 2d c4 3d 4c 3c 46 be
       0.13210064 0.18053968 0.09579013 -0.19358939
000050 1d a5 e4 3d 55 a2 60 bd bf c2 a1 3c 77 4a c8 3d
       0.11164305 -0.054842312 0.019746182 0.09779828
000060 50 50 eb bc 61 43 ca 3c 85 bc 98 bd a1 c9 d2 3d
       -0.02872482 0.024690332 -0.07457832 0.10292364
000070 37 af d1 3e 9e 8d 4b 3e 57 d7 af 3e bc 75 ab bc
       0.4095399 0.19878241 0.3434398 -0.020930164
000080 04 7a d8 3d 42 cd d0 3e fd fb 47 3e 84 9c 49 bd
       0.10570148 0.407816 0.1952972 -0.04922153
000090 91 51 64 bd b6 3a 7a bc 95 14 92 bd 48 c0 d0 3d
       -0.05574185 -0.015272787 -0.07132832 0.10192925
0000a0 7d 62 87 bc c2 7f 25 3d 12 b2 06 be 15 3e 1f bd
       -0.016526455 0.040405042 -0.13153866 -0.038877565
0000b0 b8 eb 02 3e 72 3f 1e 3d 9b b2 36 3d 2a 93 07 3e
       0.12785232 0.038634725 0.044603925 0.13239732
0000c0 4b 62 78 3e 6b e2 45 bc f7 03 59 3e ac bb cf 3c
       0.24256246 -0.012077908 0.21192919 0.025358044
0000d0 a3 ca a0 bc 6c d3 8f 3e 68 0c 95 3d 55 03 16 bd
       -0.019627875 0.2809099 0.07277757 -0.03662427
0000e0 b2 ea 6d 3e 0e 54 34 bd af 0b e5 3d 62 ae 7d bc
       0.2323406 -0.044025473 0.11183869 -0.015483471
0000f0 81 65 4c bc b8 a5 93 3e 77 e9 88 3e 24 89 f5 3d
       -0.012475372 0.2883737 0.2674062 0.11989048
000100 15 0d c6 bd a6 28 86 3d d8 69 d9 3e 5a dd b9 bd
       -0.09670464 0.06550722 0.42463565 -0.090754226
000110 cc a1 aa bd 94 57 51 bd 24 e3 75 3e 84 d5 a5 3d
       -0.083316416 -0.05110891 0.24012429 0.080973655
000120 1a c2 cf 3d fd 6e 04 3e 7b 55 9f 3e 98 d0 8c 3d
       0.10144444 0.12932964 0.31119904 0.068757236
000130 15 93 af 3d f4 98 e4 3d 12 c8 cf 3d 9c 41 d5 3c
       0.085729755 0.11161986 0.10145582 0.026032262
000140 b5 a0 06 bc 15 e3 95 bd 3b e6 b6 bd 1f e8 f2 bc
       -0.0082170265 -0.07318703 -0.08930632 -0.0296517

weight f4 [10, 84]
000000 ce 27 92 3e 7f 2b 0c 3e 18 d6 d1 bd 51 90 8e be
       0.28545994 0.13688467 -0.10245913 -0.2784448
000010 f3 11 be 3d 8c 9f c8 3d f2 67 54 3e 6b c5 ba 3d
       0.09280767 0.09796056 0.20742777 0.09119686
000020 db 4a d6 3d 8b ea c3 3c fd 2d 0a bd 06 2d d6 bd
       0.10463496 0.02391555 -0.033735264 -0.10457806
000030 41 d9 e5 bd 3b 9d a8 3d ad 59 ac be 0d 8d 86 bd
       -0.112230785 0.08233114 -0.33662167 -0.06569872
000040 35 01 83 3e 3d 73 92 3d 8a d1 09 3e a9 8c ac bd
       0.25586858 0.07150886 0.13458839 -0.08425266
000050 b8 47 03 3e 73 4b f2 3d d0 6b 93 bc 06 20 4d be
       0.12820327 0.11830797 -0.017995745 -0.20031747
000060 49 8e a4 3d 95 d6 18 bd 0d 26 df 3d a1 9f 53 be
       0.08034951 -0.037314016 0.108959295 -0.20666362
000070 45 25 3f 3e 92 72 de bd 44 90 22 3e 08 99 df bb
       0.18666561 -0.10861696 0.15875345 -0.0068236627
000080 4d 6e 62 3d c4 b8 4f 3e 75 dd 16 3e 7a 94 1a bd
       0.055280972 0.20285326 0.14732917 -0.037739255
000090 d7 70 2e be fc d9 00 3e 07 04 0c bd af 14 4e be
       -0.17035232 0.12583154 -0.03418353 -0.20125078
0000a0 ce f6 79 3d 78 70 1d 3e 03 67 92 3e 5e 97 1c bd
       0.061026387 0.15374935 0.28594217 -0.038230292
0000b0 c9 26 9b 3d ad f0 d8 3d bb 9a c0 3d 4e 35 76 bd
       0.07575757 0.1059278 0.094045125 -0.06010943
0000c0 3a 40 1a 3e 9e 2e 05 3e dc f8 1e be b6 80 89 3e
       0.15063563 0.13006064 -0.1552462 0.2685601
0000d0 e6 80 aa 3d 77 63 ef 3d f1 7b 82 be 23 3a 2d bc
       0.08325367 0.11688893 -0.25485185 -0.010572943
0000e0 58 7d 04 be 59 1a b8 bd f6 5a 32 3d d3 e7 e2 bd
       -0.1293844 -0.089894004 0.04354378 -0.11079373
0000f0 ba b9 e9 bc 67 04 80 be 73 e5 30 3e f2 9a ee bd
       -0.028530944 -0.2500336 0.17275028 -0.11650647
000100 3a be 41 3d 7b 9c 54 3e bc 3a 92 be 17 44 a6 3d
       0.047300555 0.20762818 -0.28560436 0.08118456
000110 a1 9d 15 bd 8f e1 48 bd 9f 5a 39 bd 27 fb 42 3c
       -0.03652728 -0.049043234 -0.04525244 0.0119007
000120 a8 2a 31 be a2 6b 60 3e f1 d1 24 3e 42 25 30 3e
       -0.17301428 0.21916059 0.16095711 0.17201713
000130 00 1d f5 bd 0d 9d 91 3e da b3 5f 3e 1a 98 da bd
       -0.11968422 0.28440133 0.21845952 -0.10673542
000140 22 b7 9d be 46 ba d7 3d 3b d9 79 bd 9f d7 9d 3d
       -0.30803782 0.10533576 -0.060998183 0.07707142
000150 35 40 73 3e 98 3c c0 3c 07 b1 cf bc b8 d2 34 bd
       0.23754962 0.023466393 -0.025352968 -0.04414627
000160 59 9a 04 3e 94 4f 05 3e 99 29 3f be 88 93 98 39
       0.12949504 0.13018638 -0.18668212 0.0002910162
000170 f9 59 9f be 96 98 fc 3d 6d 20 e0 bd db 4d 6f 3e
       -0.3112333 0.12333791 -0.10943685 0.23369543
000180 40 13 ad bd db af 04 bd 00 cd 96 be fa fb 29 3e
       -0.08450937 -0.03239427 -0.29453278 0.16600028
000190 ee 71 24 be 7e e8 5f 3d 09 4c 01 be 52 b5 cf 3d
       -0.16059086 0.05466508 -0.12626661 0.10142006
0001a0 df 2a 91 3e 1d 69 f3 bc 39 1d 84 3e c4 42 82 be
       0.2835302 -0.029713208 0.25803545 -0.25441563
0001b0 ee f4 d4 3d c5 72 62 3e 78 61 a8 3d ca ce b6 bc
       0.10398279 0.22114094 0.08221716 -0.022315402
0001c0 6c 00 bd bd 2d d5 01 be 35 d3 02 bd 1f cb 44 3c
       -0.09228596 -0.12678976 -0.031939704 0.0120113185
0001d0 d1 5c 22 3e 9c 16 80 be b9 42 7e bd f4 cc 51 3b
       0.15855719 -0.2501725 -0.06207535 0.003201303
0001e0 24 c0 5b 3d 07 b7 89 3d ff 6c ba bd de 02 06 be
       0.053650036 0.06724363 -0.091028206 -0.13087031
0001f0 33 8b 30 3e 51 37 b7 3d e2 a4 88 bd cf 82 46 3e
       0.172406 0.08946098 -0.06672074 0.19385837
000200 1b 5e 92 be bf 62 a6 bd 0a 29 c5 bd 2f 8e 49 bd
       -0.28587422 -0.08124303 -0.09626968 -0.049207862
000210 ae da 6b bd f7 c9 55 be a7 3c 71 be 4e e7 95 3e
       -0.057581596 -0.20877825 -0.23558293 0.29278034
000220 a1 97 d5 bc d0 3f 1a bd 53 63 b9 3c 86 dd 27 bd
       -0.026073279 -0.037658513 0.02263037 -0.040982746
000230 15 ee fc 3c e4 36 3e bd 5c 01 cf 3e 34 9c 25 be
       0.030875245 -0.046439067 0.40430725 -0.16172868
000240 c2 a0 8b bb c4 b6 f6 3a 59 17 65 bd 35 45 7c 3d
       -0.004261107 0.0018822779 -0.05593047 0.06158944
000250 d6 b0 62 3e 77 f5 01 be 88 79 91 be 5a 49 59 3d
       0.2213777 -0.12691294 -0.28413033 0.05304847
000260 4a 15 04 3e 6b a4 16 3e ce b5 36 3e 39 aa e6 bd
       0.12898746 0.14711158 0.1784279 -0.11262936
000270 31 73 66 bc bb bf 22 bd 04 37 67 3d 64 3e 98 3e
       -0.01406555 -0.03973363 0.05644895 0.297351
000280 b1 8b 1d 3e 22 3a 8f 3d 93 34 71 3e 28 c0 b1 3c
       0.1538532 0.0699351 0.23555212 0.021698073
000290 68 20 8d 3e 0b b2 8d be b1 d7 30 3c b3 40 8c 3d
       0.27563787 -0.27674899 0.010793612 0.06848278
0002a0 03 b2 3f bd ff c0 15 bd f0 ea bc bc fa d2 24 3e
       -0.046800625 -0.03656101 -0.023061246 0.16096106
0002b0 59 1c 90 bd de 9b cb bd 31 f8 5d be 6d 22 51 3e
       -0.07036657 -0.09941839 -0.21676709 0.20423289
0002c0 3b d6 96 3d 3e 78 23 be 8a 51 4d bd 0b 25 0f be
       0.0736508 -0.15963838 -0.05012659 -0.13978975
0002d0 44 8d 9a bc 33 a8 b7 3d 59 0c 55 3e ae d0 1d bc
       -0.018866189 0.08967628 0.20805492 -0.009632273
0002e0 31 91 27 3e 26 01 1c bd ad 0c c7 3d 5c 2d e9 3c
       0.1636398 -0.038087033 0.097192146 0.028464012
0002f0 63 db 2a be ed 85 48 3c 16 93 34 bc 39 c4 c8 3d
       -0.16685252 0.012238962 -0.011021396 0.098030515
000300 a9 22 56 bb 3a 2e c6 3d d3 c1 5a 3e 64 4b 46 bd
       -0.0032674468 0.09676786 0.21363 -0.04841174
000310 01 a5 39 3e 5d 63 05 be 90 b7 e5 3c c0 6e 88 bd
       0.1812935 -0.13026185 0.028041631 -0.06661749
000320 0d ba 59 bb 7e cf c9 3d 4c 5a a9 3c c0 8d db 3d
       -0.0033222467 0.09854029 0.02067294 0.10720396
000330 7c ef 3e 3d ed 54 d7 bd 59 37 2f 3d 5f d7 82 bb
       0.04661511 -0.10514245 0.042777393 -0.0039929594
000340 97 82 27 be 09 f7 d9 3c 70 2f 9d 3d b5 29 8a 3d
       -0.1635841 0.026607053 0.076750636 0.06746236
000350 af 9c bc bd 51 83 c1 bd 22 d1 92 3e 01 cc d0 bd
       -0.092095725 -0.09448875 0.2867518 -0.10195161
000360 de 61 7d 3e f8 1f c5 3d 0a 2f e0 3d c6 4d 9d bb
       0.24744365 0.09625238 0.10946472 -0.004800531
000370 6b 75 9b 3c ad 07 1b bd df f4 19 3e a9 85 1b 3d
       0.018976888 -0.037849117 0.15034817 0.037969265
000380 b2 7c 06 be eb af fe bd 68 d8 0f be a6 a9 68 bd
       -0.13133505 -0.124358974 -0.14047396 -0.056802414
000390 97 05 1e be 3b a2 4f 3e e8 fa 7a 3d 93 10 e2 bd
       -0.1543182 0.2027673 0.06127444 -0.110383175
0003a0 18 ca bc bd 71 96 18 3e 5e 39 0a 3e 55 0e c8 bc
       -0.09218234 0.14901139 0.13498446 -0.024420897
0003b0 ab 8c fb 3d 94 f4 82 3d 75 50 04 be 07 95 4d 3d
       0.1228269 0.06394306 -0.12921317 0.05019095
0003c0 19 ad a7 bc 1a 43 31 3e 0d fb d4 bd c7 76 05 be
       -0.020468282 0.17310753 -0.10399447 -0.13033591
0003d0 d1 ad d7 3d d1 14 df bd 0a 59 83 bd d4 87 46 3d
       0.105312 -0.10892642 -0.06413467 0.04846938
0003e0 b6 e4 ff bd 94 b3 93 3e f9 54 73 3d 1d f3 4d 3d
       -0.12494795 0.28847945 0.059407208 0.05028068
0003f0 15 4d 30 3b 84 ea fd bd 22 7a 03 bd ff 2b 7c bd
       0.0026901413 -0.12398246 -0.032098897 -0.061565395

bias f4 [10]
000000 48 54 b4 be 00 6c 25 bf c8 e0 6c 3d ac d1 ce 3e
       -0.35220551 -0.6461792 0.057831556 0.40394342
000010 5f b8 11 3f d2 99 4c 3d 09 97 46 3c ed 90 8c be
       0.5692195 0.049951382 0.0121209705 -0.2745432
000020 65 7d 00 3f 59 f7 4c be
       0.50191337 -0.2001623
