models/04_lstm_tagger.pt (torch, 21911 bytes, 7 tensors)

weight f4 [9, 6]
0.33678278 1.0552666 -0.9007591 0.40468287 -0.6223729 0.6249693 0.7658169 0.7788347
-0.1822377 0.043310393 0.80308485 -1.7864014 1.3356874 -0.67393506 -0.4010085 -1.278477
-0.037640315 -0.02641348 -1.6958817 1.0855588 0.096306786 0.08974985 -1.009337 1.2646954
0.9197447 0.0769732 -0.6856813 -0.7948983 -0.6773604 1.4767481 0.21136548 -0.4769697
0.051899355 0.2955848 -1.6556438 -1.0432072 -1.4223714 0.71088344 -1.6181372 -1.2183601
0.20164968 -0.7973987 1.7008221 0.81915456 -0.37489602 0.2811649 0.31976983 1.5427713
0.67279494 -0.069089696 -0.554382 0.25071093 0.28963456 1.1575031
00000000: cb6e ac3e fa12 873f 2698 66bf 9832 cf3e
00000010: d553 1fbf fdfd 1f3f 940c 443f b661 473f
00000020: 859c 3abe 3d66 313d f896 4d3f cda8 e4bf
00000030: cef7 aa3f 0287 2cbf fc50 cdbe 22a5 a3bf
00000040: bb2c 1abd 1561 d8bc a712 d9bf 97f3 8a3f
00000050: 7e3c c53d c5ce b73d f431 81bf 8ae1 a13f
00000060: 6374 6b3f 20a4 9d3d cf88 2fbf 747e 4bbf
00000070: 7e67 2dbf 1506 bd3f 3170 583e 5f35 f4be
00000080: 6b94 543d e456 973e 23ec d3bf d087 85bf
00000090: 4410 b6bf 75fc 353f 1f1f cfbf 39f3 9bbf
000000a0: 417d 4e3e 5222 4cbf 8ab4 d93f 1db4 513f
000000b0: 5ff2 bfbe d9f4 8f3e dfb8 a33e 8879 c53f
000000c0: 4a3c 2c3f e67e 8dbd fbeb 0dbf 2f5d 803e
000000d0: fb4a 943e 1029 943f

weight_ih_l0 f4 [24, 6]
0.15776777 -0.1895201 -0.3204924 -0.37921438 -0.03523945 -0.02319609 -0.39329976 0.24182793
0.3668857 0.15704939 -0.272488 0.059627723 0.27324376 -0.4014558 0.07496959 -0.053168714
-0.31081927 -0.2086216 0.20529597 -0.14743094 -0.22910526 0.016791768 -0.39202425 -0.041321546
-0.3847321 -0.0142652495 -0.35756016 0.24341731 0.23641297 0.25652835 -0.029054273 0.13210922
-0.30841002 0.24180079 0.25053272 0.2805258 -0.03085288 -0.06564049 0.33172944 -0.14415844
-0.40161446 -0.37349504 -0.12177825 -0.14667378 -0.26064336 0.27948663 -0.15592131 -0.05674704
0.08068525 -0.38073438 0.3280269 0.06256924 0.24477252 0.25301045 0.029373404 0.05407071
-0.12308592 0.15476276 -0.04282814 -0.34502718 -0.04162689 0.40019277 0.03670229 -0.40391132
-0.38249892 0.08965394 0.09744088 0.015088528 0.0056056557 -0.27217102 0.37587708 0.25539494
0.2287324 -0.13800925 0.2271338 -0.016000576 0.27583662 0.21886177 0.08991154 0.3580072
0.35092333 0.32020405 -0.19039458 -0.1189588 0.037037365 -0.36913657 -0.117112145 -0.4049162
-0.35057116 0.048003845 -0.39118326 0.23972534 0.09946443 0.24346201 0.10667066 -0.23794505
-0.24820979 0.06697469 0.35315228 0.10754284 -0.27761957 -0.1516025 0.22179608 0.05204492
0.06942603 -0.026405461 0.23089841 0.3242847 -0.11588773 0.32985368 0.14185727 -0.40139776
0.18670478 0.29518554 -0.2305104 -0.013112853 0.2504761 -0.11898346 -0.31763202 0.09545058
0.18318075 -0.01823552 0.08218772 -0.30683693 -0.009551291 -0.3801338 -0.12630953 -0.3439948
0.09093199 -0.35447586 0.011273293 0.16012354 -0.14921169 0.19661573 0.00423061 -0.3045009
0.40368953 -0.07790496 0.25759682 0.19360843 -0.12585294 -0.17718755 -0.3105004 -0.19866805
00000000: e08d 213e 8f11 42be 9417 a4be 6328 c2be
00000010: 3e57 10bd ba05 bebc 965e c9be bea1 773e
00000020: 71d8 bb3e 8ed1 203e 8c83 8bbe 333c 743d
00000030: 9be6 8b3e 9d8b cdbe a889 993d 70c7 59bd
00000040: b423 9fbe e7a0 55be 1b39 523e 23f8 16be
00000050: 929a 6abe e48e 893c 67b7 c8be c840 29bd
00000060: 9bfb c4be cbb8 69bc 2012 b7be 6342 793e
00000070: 3e16 723e af57 833e 3a03 eebc a447 073e
00000080: ebe7 9dbe a09a 773e d345 803e 14a1 8f3e
00000090: 2ebf fcbc 856e 86bd 71d8 a93e 459e 13be
000000a0: 69a0 cdbe be3a bfbe e066 f9bd a731 16be
000000b0: 0c73 85be df18 8f3e d6a9 1fbe 966f 68bd
000000c0: 4f3e a53d 9eef c2be 24f3 a73e 4d24 803d
000000d0: a6a5 7a3e 968a 813e 7ea0 f03c 4079 5d3d
000000e0: 7914 fcbd 217a 1e3e 8f6c 2fbd 67a7 b0be
000000f0: f580 2abd 11e6 cc3e 2455 163d 77cd cebe
00000100: e6d6 c3be 7c9c b73d 168f c73d e035 773c
00000110: a6af b73b 005a 8bbe f672 c03e 20c3 823e
00000120: d438 6a3e 4c52 0dbe c395 683e a413 83bc
00000130: 753a 8d3e 4d1d 603e 8b23 b83d b84c b73e
00000140: 39ac b33e c9f1 a33e ccf6 42be aca0 f3bd
00000150: 7eb4 173d 78ff bcbe 7ed8 efbd 2d51 cfbe
00000160: 107e b3be ae9f 443d 2c49 c8be 8f7a 753e
00000170: 02b4 cb3d 1b4e 793e 2676 da3d dea7 73be
00000180: b52a 7ebe 072a 893d 60d0 b43e 6c3f dc3d
00000190: 2724 8ebe b03d 1bbe 831e 633e 0e2d 553d
000001a0: 3c2f 8e3d 4450 d8bc a270 6c3e a508 a63e
000001b0: 8c56 edbd 95e2 a83e 0843 113e 0284 cdbe
000001c0: 8a2f 3f3e 8f22 973e eb0a 6cbe 4bd7 56bc
000001d0: 673e 803e 9aad f3bd aaa0 a2be 987b c33d
000001e0: bc93 3b3e a862 95bc 0952 a83d bb19 9dbe
000001f0: 057d 1cbc e6a0 c2be 4957 01be 1620 b0be
00000200: 8d3a ba3d dc7d b5be 9eb3 383c 6df7 233e
00000210: f3ca 18be a255 493e eea0 8a3b 8be7 9bbe
00000220: 65b0 ce3e a38c 9fbd bbe3 833e 4a41 463e
00000230: 98df 00be a770 35be e9f9 9ebe a36f 4bbe

weight_hh_l0 f4 [24, 6]
-0.26906437 -0.36434636 -0.18073784 0.2073245 -0.14751738 0.3825258 -0.1161038 0.1394524
-0.2217053 -0.1230731 -0.039383218 -0.14027591 -0.043749142 -0.27049688 0.11660865 0.25520265
-0.28825718 -0.36652344 -0.13677272 0.39118025 -0.21235795 -0.003108942 -0.21730515 0.16484538
0.17276545 0.38112885 0.077191725 -0.050154563 0.21971008 -0.28492534 0.304981 -0.2714002
0.27683583 0.15558952 -0.029495658 -0.21935451 -0.21163315 0.25180015 -0.36036846 0.27811867
0.26342568 -0.17097503 -0.103617854 -0.013482044 -0.14877346 0.2802152 0.013149866 0.08016956
0.25752103 0.39268854 0.053366452 -0.13735142 0.36844587 -0.14397816 0.13685925 -0.2806459
-0.3628479 0.2585586 0.016579017 -0.09402507 0.3940395 0.39532834 -0.09934909 -0.39203084
-0.019240087 -0.084158234 0.2639551 -0.2006872 0.29608458 -0.34316903 -0.39261076 -0.36607456
-0.3903113 -0.2522552 -0.08316691 0.033594023 -0.21425085 0.30095452 -0.3314112 -0.35266697
0.3341001 -0.14023298 0.112753324 0.25050706 0.36231714 0.2651318 -0.15142353 0.109521076
0.025688915 -0.26155868 -0.0852001 0.0039162375 0.34808192 -0.3395571 -0.059784744 -0.041389756
-0.035627358 -0.2023968 -0.32846516 -0.12113041 0.36871094 -0.36478397 -0.025759159 0.29494786
0.34781355 -0.20147733 -0.028750407 0.27263072 0.035510175 0.4052607 -0.08643005 0.34912795
-0.13703474 -0.12649891 0.36599982 0.28072983 -0.189482 -0.3885137 -0.17880428 0.14236291
-0.16545291 -0.04637402 0.19302966 -0.2647248 -0.25188214 0.18018316 -0.18258266 0.027859861
-0.07627709 -0.20962483 0.3949757 -0.19633996 0.013139415 -0.294668 0.12098075 0.32511267
-0.34178656 0.25085503 -0.25217718 0.35977188 0.27971503 0.13112892 -0.1093364 -0.27264434
00000000: cec2 89be 9b8b babe 5713 39be e04c 543e
00000010: cc0e 17be 6cda c33e d4c7 edbd 9ccc 0e3e
00000020: b706 63be c00d fcbd 4c50 21bd 7da4 0fbe
00000030: 4d32 33bd 917e 8abe 84d0 ee3d eca9 823e
00000040: 7296 93be f6a8 bbbe 260e 0cbe c748 c83e
00000050: 5d74 59be 64bf 4bbb 3e85 5ebe 3acd 283e
00000060: 6de9 303e 5223 c33e b216 9e3d df6e 4dbd
00000070: aefb 603e bce1 91be 7826 9c3e f8f4 8abe
00000080: 6dbd 8d3e dc52 1f3e e1a0 f1bc 789e 60be
00000090: 5cb6 58be f3eb 803e 3782 b8be 9265 8e3e
000000a0: bbdf 863e 1414 2fbe 9935 d4bd cbe3 5cbc
000000b0: 1258 18be 5e78 8f3e 8972 573c f02f a43d
000000c0: ccd9 833e 790e c93e c896 5a3d daa5 0cbe
000000d0: f0a4 bc3e 036f 13be d524 0c3e d2b0 8fbe
000000e0: 33c7 b9be cb61 843e b8d0 873c 3790 c0bd
000000f0: 8cbf c93e 7a68 ca3e 8977 cbbd 44b8 c8be
00000100: 639d 9dbc 275b acbd 1f25 873e f280 4dbe
00000110: 6698 973e dab3 afbe 4704 c9be 206e bbbe
00000120: e2d6 c7be 9827 81be 6a53 aabd e399 093d
00000130: 9364 5bbe b616 9a3e bbae a9be c490 b4be
00000140: 2b0f ab3e 3c99 0fbe 37eb e63d 7642 803e
00000150: a281 b93e 5bbf 873e c50e 1bbe 964c e03d
00000160: 8f71 d23c 05eb 85be 647d aebd c853 803b
00000170: cb37 b23e 6eda adbe d9e0 74bd 4e88 29bd
00000180: feed 11bd 1b41 4fbe 962c a8be 3813 f8bd
00000190: aec7 bc3e f7c4 babe df04 d3bc 6803 973e
000001a0: 9e14 b23e 1350 4ebe f985 ebbc 4196 8b3e
000001b0: 1e73 113d 557e cf3e 3d02 b1bd e6c0 b23e
000001c0: d652 0cbe ee88 01be 5464 bb3e d2bb 8f3e
000001d0: 9207 42be 45eb c6be 7818 37be 95c7 113e
000001e0: 7d6c 29be aff2 3dbd 91a9 453e 028a 87be
000001f0: b2f6 80be ef81 383e f3f6 3abe 5d3a e43c
00000200: 2a37 9cbd e4a7 56be 413a ca3e 580d 49be
00000210: b346 573c b9de 96be c1c4 f73d 2b75 a63e
00000220: a6fe aebe 1270 803e 5e1d 81be 0534 b83e
00000230: cf36 8f3e a946 063e c3eb dfbd 0a98 8bbe

bias_ih_l0 f4 [24]
0.047113627 -0.03747497 0.27969426 -0.087552726 -0.0974728 -0.2372433 0.4031458 0.29138416
-0.023336835 -0.35065013 -0.11147442 0.34444568 -0.07703277 0.37025934 -0.0325397 -0.14631256
-0.17141542 0.093989566 0.022440897 -0.041720342 -0.06644746 -0.0075460006 0.15412296 0.059960917
00000000: 38fa 403d 5b7f 19bd 1634 8f3e d84e b3bd
00000010: d29f c7bd e8ef 72be 2069 ce3e 4e30 953e
00000020: e42c bfbc 6a88 b3be b34c e4bd 2f5b b03e
00000030: 5bc3 9dbd a292 bd3e 5948 05bd f6d2 15be
00000040: 8687 2fbe 9a7d c03d f9d5 b73c f3e2 2abd
00000050: 9b15 88bd 7144 f7bb 69d2 1d3e 9499 753d

bias_hh_l0 f4 [24]
0.19476044 -0.20338789 -0.29643908 -0.28747723 -0.29226768 -0.21472746 0.2949623 -0.20606625
-0.30574423 -0.3897873 -0.044020023 -0.1625437 0.38120425 0.114504226 -0.00200494 0.022177596
-0.04652685 -0.093124986 -0.027043357 0.19816239 -0.13474971 0.122558616 0.1258648 -0.13676125
00000000: 486f 473e ea44 50be ddc6 97be 3730 93be
00000010: 1ca4 95be 84e1 5bbe 4c05 973e 0803 53be
00000020: 828a 9cbe 3392 c7be 574e 34bd db71 26be
00000030: 342d c33e 3181 ea3d 5065 03bb caad b53c
00000040: f092 3ebd 50b8 bebd 088a ddbc 15eb 4a3e
00000050: d4fb 09be 0300 fb3d b4e2 003e 240b 0cbe

weight f4 [3, 6]
0.060897823 -0.10788522 0.20644537 -0.19646688 -0.32235256 -0.009850104 0.11452561 -0.20802361
-0.33336934 -0.21829902 -0.13065505 -0.07983063 -0.16943806 0.11692736 0.27596855 -0.15107049
0.34171048 -0.2160529
00000000: ff6f 793d edf2 dcbd 6a66 533e 9d2e 49be
00000010: 650b a5be 5562 21bc 678c ea3d 2404 55be
00000020: 63af aabe c789 5fbe 70ca 05be 3e7e a3bd
00000030: 2c81 2dbe 9d77 ef3d c04b 8d3e 39b2 1abe
00000040: adf4 ae3e f93c 5dbe

bias f4 [3]
-0.033788204 -0.2656364 0.19370644
00000000: 8065 0abd 7f01 88be fb5a 463e
