models/04_lstm_tagger.pt (torch, 21911 bytes, 7 tensors)

weight f4 [9, 6]
0	0xbf03d654	-0.51498914
1	0x3f845ccb	1.0340818
2	0xbef3272a	-0.47490817
3	0xbf65b79d	-0.89733297
4	0x3f90dc79	1.1317283
5	0x3f8895a6	1.0670669
6	0xbf921b78	-1.1414633
7	0xbf8ced35	-1.100989
8	0x3e48d6c6	0.1961318
9	0x3c7d0c68	0.015444852
10	0x3f87e720	1.0617409
11	0x3e8d8d50	0.27646875
12	0xbcd8ec66	-0.026479911
13	0x3eddc024	0.43310654
14	0x3f3556fb	0.70835847
15	0x3ee1d829	0.4411023
16	0xbf00dd34	-0.5033753
17	0x3ff3b30d	1.9039017
18	0xbf2753bf	-0.6536216
19	0x3e912360	0.283473
20	0xbeebea46	-0.46077174
21	0xbf82752c	-1.0192008
22	0x3f68f242	0.90994656
23	0xbf286f27	-0.65794605
24	0xbfc18945	-1.5120016
25	0xbc38759f	-0.011258512
26	0x3d394f72	0.04524178
27	0xbdaebb93	-0.08531871
28	0x3f70a78e	0.9400567
29	0xbffe9fe4	-1.9892545
30	0x3ecef8c7	0.40424177
31	0x3fda9428	1.7076464
32	0x3fb574e7	1.4176301
33	0xbfccd3f0	-1.6002178
34	0xbf19271c	-0.598253
35	0x3f636663	0.88828105
36	0xbfa94268	-1.322339
37	0xbf93cf83	-1.1547703
38	0xbf1ca16c	-0.6118381
39	0xbfa40f0e	-1.2817094
40	0x3f3c9877	0.7367014
41	0xbed10354	-0.40822852
42	0xbefd9ec4	-0.4953519
43	0x400579c5	2.0855572
44	0xbdb20ba8	-0.086936295
45	0x3fdca677	1.7238301
46	0x3f6fe899	0.9371429
47	0xbf222b18	-0.63347006
48	0x3da8946c	0.08231434
49	0x3e00ccaf	0.1257808
50	0x3f86482f	1.0490779
51	0x3f8938ee	1.0720499
52	0x4001c023	2.027352
53	0xbf050431	-0.5195952

weight_ih_l0 f4 [24, 6]
0	0x3e51faad	0.20505781
1	0x3e767d4e	0.24071237
2	0x3e9b3992	0.3031736
3	0xbeab5d9d	-0.3346986
4	0x3e09b08d	0.13446255
5	0xbe87b208	-0.26503015
6	0x3ebbd753	0.36687717
7	0x3e9d9312	0.30776268
8	0xbebcef7b	-0.3690146
9	0xbeb77fa0	-0.35839558
10	0xbecd5ccb	-0.40109858
11	0x3e5b70bb	0.21429722
12	0xbe84ef18	-0.25963664
13	0x3eaee509	0.34159115
14	0xbeb883e4	-0.36038125
15	0xbe4f7cea	-0.20262495
16	0xbcb62389	-0.022233741
17	0xbc887b13	-0.016660249
18	0xbe8226e6	-0.25420302
19	0x3eb0aada	0.3450535
20	0x3d180fb7	0.03712436
21	0xbe94e329	-0.2907956
22	0xbd37d099	-0.04487667
23	0x3eb3e95f	0.35138986
24	0xbe6c9983	-0.23105435
25	0x3e5173f6	0.20454392
26	0x3e4459d1	0.19174887
27	0x3e47a5f7	0.19496904
28	0xbea15d8f	-0.31516692
29	0xbe279e2b	-0.1636893
30	0x3ebba34c	0.36648023
31	0x3cb45264	0.022011943
32	0x3ec86770	0.39141417
33	0x3e173b04	0.14768606
34	0xbeb0501b	-0.34436116
35	0x3e705a45	0.23471935
36	0xbddb624b	-0.10712107
37	0xbea7c306	-0.3276598
38	0x3e91561c	0.2838601
39	0xbea0fb49	-0.31441715
40	0xbc6f5d77	-0.014609686
41	0xbe2d15d0	-0.16902852
42	0xbc3f4b2e	-0.011675639
43	0xbe8ca648	-0.27470613
44	0xbed0cd64	-0.407817
45	0xbe6dc557	-0.2321981
46	0x3ead67ba	0.338682
47	0xbd59beb2	-0.053160377
48	0xbea0ef1d	-0.3143243
49	0xbea4338a	-0.3207057
50	0x3dd2a8ec	0.102861255
51	0xbde7097f	-0.11281108
52	0xbe7812d3	-0.24225931
53	0xbe088a39	-0.13333978
54	0x3e15d313	0.146313
55	0xbe5ab621	-0.21358539
56	0xbeb70481	-0.35745624
57	0x3ec5021f	0.3847818
58	0x3e726437	0.23671041
59	0xbdb23ec9	-0.087033816
60	0x3e6b9af8	0.23008335
61	0x3da92848	0.08259636
62	0xbdaf62f7	-0.08563798
63	0x3db0568c	0.086102575
64	0x3e91a17e	0.2844352
65	0xbeb25e82	-0.3483773
66	0xbc1811e8	-0.009281613
67	0x3e0fce10	0.1404345
68	0x3d653d0a	0.055966415
69	0x3e4dd734	0.20101625
70	0xbd3c0436	-0.045902453
71	0x3e514055	0.20434697
72	0xbe365d1b	-0.17808954
73	0x3d016010	0.031585753
74	0x3ec2d292	0.38051277
75	0xbd85cdde	-0.06533407
76	0xbe4deab8	-0.2010907
77	0xbd048aea	-0.03235904
78	0xbe3ca709	-0.18423094
79	0xbe9807f0	-0.29693556
80	0x3dc79a1e	0.097461924
81	0xbe3fd970	-0.1873529
82	0xbe3a7b7f	-0.18211173
83	0x3d5dbbd0	0.05413419
84	0x3e18f06b	0.14935462
85	0x3e3475f0	0.17623115
86	0x3e6507e8	0.22366297
87	0xbdba89b9	-0.091083
88	0xbeba8e57	-0.36436722
89	0xbc27e639	-0.01024776
90	0x3e8d0cfa	0.27548963
91	0xbea0c883	-0.31402978
92	0x3e2e2c81	0.17009164
93	0x3e862702	0.26201636
94	0x3e82afe6	0.25524825
95	0x3e9f393d	0.31098357
96	0x3d3e1283	0.046404373
97	0x3e3e1958	0.18564355
98	0x3e86aa9b	0.26302037
99	0xbe2e3ee2	-0.17016175
100	0xbe90e664	-0.28300774
101	0xbec7a6d9	-0.38994482
102	0xbca821dc	-0.020523958
103	0xbea3a44b	-0.31961283
104	0xbe8279f9	-0.25483683
105	0xbdc391a7	-0.09549265
106	0x3e996687	0.29961035
107	0xbdf5800f	-0.11987316
108	0xbe69d45d	-0.22834916
109	0xbdaad2b5	-0.083409704
110	0xbd2c70b1	-0.04209966
111	0x3de693ff	0.11258697
112	0xbec30861	-0.3809233
113	0xbec71eab	-0.38890585
114	0xbe5ce171	-0.21570374
115	0xbcc81bc2	-0.024427298
116	0xbe9ac372	-0.30227238
117	0x3ecf02d1	0.40431836
118	0x3dfa0abc	0.12209079
119	0x3eaaf26b	0.33388075
120	0xbe676962	-0.22598794
121	0xbeb857c1	-0.3600445
122	0x3ea7a88a	0.32745773
123	0xbe25f9f4	-0.16208631
124	0xbe82d668	-0.25554204
125	0x3e378548	0.17921937
126	0x3e9ed9cf	0.3102555
127	0xbeaa339c	-0.332425
128	0x3ead4a6f	0.3384585
129	0x3e309a0c	0.17246264
130	0xbeccce32	-0.40001065
131	0xbd421e3a	-0.047392108
132	0xbe9b561a	-0.30339128
133	0xbc88513d	-0.0166403
134	0x3d9f7fd0	0.0778805
135	0x3e8b0c1b	0.27157673
136	0xbd9c579e	-0.07633899
137	0xbe92f4a0	-0.2870226
138	0xbd433347	-0.047656324
139	0x3ed08093	0.40723094
140	0x3ed083a7	0.40725443
141	0x3e8a146f	0.26968715
142	0xbe7ffcf3	-0.24998836
143	0x3db5e04e	0.08880673

weight_hh_l0 f4 [24, 6]
0	0x3e96282f	0.29327533
1	0xbe1aef01	-0.15130235
2	0x3e01f8cd	0.12692566
3	0x3e4152f9	0.18879308
4	0xbec61bcd	-0.38693085
5	0xbea63601	-0.32463077
6	0x3d9da2de	0.0769708
7	0x3dcbba05	0.0994759
8	0x3d41b9f5	0.047296483
9	0x3e972df8	0.2952726
10	0xbec51030	-0.38488913
11	0xbe66b2bf	-0.22529124
12	0x3d3e5c70	0.046474874
13	0x3eb25282	0.34828573
14	0x3e89008a	0.26758224
15	0xbeb739ee	-0.35786384
16	0x3eb332fb	0.34999833
17	0xbebfac4c	-0.3743614
18	0xbeb33a02	-0.35005194
19	0x3e0cec8b	0.13762109
20	0xbeced4ac	-0.4039663
21	0x3e8d5541	0.27604106
22	0xbe586850	-0.21133542
23	0xbec558f0	-0.38544416
24	0x3e8dabf1	0.27670243
25	0x3db6218c	0.08893117
26	0xbe300889	-0.17190756
27	0x3cad9ee9	0.021193938
28	0xbe3acba1	-0.18241741
29	0xbdc1d7af	-0.094649665
30	0x3da7c497	0.081917934
31	0x3ded87ff	0.11598205
32	0xbddb9551	-0.10721839
33	0xbec62ea5	-0.38707462
34	0xbdffd85e	-0.12492441
35	0xbe96c24a	-0.29445106
36	0x3d3089d3	0.04310019
37	0xbe0daf41	-0.13836385
38	0xbec966a5	-0.39336124
39	0x3e66506a	0.22491613
40	0xbe5a563e	-0.21321961
41	0xbe5df2b0	-0.21674609
42	0xbeb53bd0	-0.35397196
43	0xbe7e7c97	-0.24852215
44	0xbe9dd78c	-0.30828512
45	0x3e4951d8	0.19660127
46	0x3ebba941	0.36652568
47	0x3de51bdf	0.111869566
48	0x3e17201d	0.14758344
49	0x3e8a06ea	0.269584
50	0x3d1b7a54	0.037958458
51	0x3e4c3681	0.19942667
52	0x3e363944	0.17795283
53	0xbe870650	-0.26372004
54	0x3cae07b5	0.02124391
55	0x3ecd76cc	0.40129697
56	0x3e6353ac	0.22199887
57	0x3d6183d2	0.055057354
58	0xbeaea6f1	-0.3411174
59	0x3eab3e24	0.33445847
60	0x3db971fe	0.090549454
61	0x3ebc5fae	0.36791748
62	0xbe306cc2	-0.17228988
63	0x3cb513b1	0.022104116
64	0x3cb7c9b6	0.02243505
65	0x3d16e7a1	0.036841992
66	0xbeab7ad2	-0.33492142
67	0x3e7a9a5a	0.24472943
68	0xbe2d5523	-0.16927008
69	0xbdc16e69	-0.09444887
70	0xbec98c2a	-0.3936475
71	0xbe241135	-0.16022189
72	0x3eb83ef6	0.35985535
73	0xbe8abb3b	-0.2709597
74	0xbe41c635	-0.18923266
75	0xbe0489ac	-0.12943143
76	0xbe5ab317	-0.2135738
77	0x3d79979c	0.0609356
78	0x3e448421	0.19191028
79	0x3e4fc155	0.20288594
80	0xbec2cc9c	-0.3804673
81	0x3db4387d	0.08799837
82	0x3e88d09c	0.26721656
83	0xbe648e39	-0.22319879
84	0x3e2ca1d3	0.16858606
85	0x3e995f3e	0.29955477
86	0x3e9c6953	0.30549106
87	0xbcaf3134	-0.021385767
88	0xbe1f2d18	-0.15544546
89	0xbd7db3a0	-0.061938882
90	0xbdf751d7	-0.120761566
91	0x3ed0f424	0.40811265
92	0xbd9035a4	-0.07041481
93	0x3d007e26	0.031370305
94	0x3e1fed60	0.15617895
95	0x3de4bdd1	0.11169017
96	0xbea47c51	-0.32126096
97	0xbe76fbf5	-0.24119551
98	0x3e886c5e	0.26645178
99	0xbe83d186	-0.2574579
100	0xbea6d897	-0.3258712
101	0xbe478808	-0.19485486
102	0xbeba4131	-0.36377862
103	0x3e3a8df5	0.18218215
104	0x3e299125	0.16559274
105	0x3d66106c	0.056168005
106	0xbd99f7fd	-0.07518003
107	0xbd9593d5	-0.07303587
108	0xbe07fe0b	-0.13280503
109	0x3dedecb4	0.11617413
110	0x3e1b5797	0.15170132
111	0xbde651a3	-0.1124604
112	0x3eb9da2e	0.3629927
113	0xbdf075e7	-0.11741238
114	0xbe5e4f9a	-0.21710053
115	0x3e3dbed8	0.18529832
116	0x3e639e82	0.22228435
117	0x3ea423ea	0.3205865
118	0x3eade1ba	0.33961278
119	0x3e20fd9c	0.15721744
120	0x3eb7e8a0	0.35919666
121	0xbdd6a97e	-0.10481547
122	0xbe1fd2f8	-0.15607822
123	0x3e159b04	0.14609915
124	0x3e2b320b	0.16718309
125	0xbe8d4816	-0.2759406
126	0x3cf28a83	0.029607063
127	0x3e725ad4	0.2366746
128	0x3ea112d8	0.3145969
129	0x3e63ac7b	0.22233765
130	0x3e12ac80	0.14323616
131	0x3d887042	0.066620365
132	0x3ea06a4e	0.31331104
133	0x3eaf60e2	0.34253603
134	0x3ebaa86e	0.36456627
135	0xbe601dc5	-0.21886356
136	0xbea0fa70	-0.3144107
137	0x3ce915cb	0.028452775
138	0x3e8ff80a	0.28118926
139	0x3e4c6ee7	0.19964181
140	0x3d922531	0.07136
141	0x3e645710	0.22298837
142	0xbe4e9a7c	-0.20176119
143	0x3e87343a	0.26407033

bias_ih_l0 f4 [24]
0	0xbe4d1c59	-0.20030345
1	0x3e7c6226	0.24646816
2	0x3e220733	0.15823059
3	0xbe6dcc90	-0.23222566
4	0xbe168715	-0.14699967
5	0x3e44fd75	0.19237311
6	0xbea23c7d	-0.31686774
7	0x3e1fab1f	0.15592621
8	0x3e3bd5ca	0.18343273
9	0x3e8dccc9	0.276953
10	0xbea0b2f6	-0.31386536
11	0xbdefc2f6	-0.11707108
12	0x3e4c54c6	0.19954214
13	0x3d4d7100	0.050156593
14	0xbe62457a	-0.22096816
15	0xbe6c0723	-0.23049597
16	0x3dbedaeb	0.09319099
17	0xbe907214	-0.28212035
18	0x3ecb9872	0.39764744
19	0x3dae9b1f	0.08525681
20	0x3dd3d6a9	0.103436776
21	0x3e280fab	0.16412227
22	0xbd38c250	-0.045107186
23	0x3e2cd7c1	0.16879179

bias_hh_l0 f4 [24]
0	0x3eaa86f4	0.33306086
1	0x3d0e8802	0.034797676
2	0xbe8de991	-0.2771726
3	0x3c33daa9	0.010977426
4	0x3d509467	0.050922778
5	0x3d904cca	0.07045896
6	0xbe21c7fd	-0.15798946
7	0xbb900b8e	-0.0043959087
8	0x3d7f0fad	0.06227081
9	0x3e78789a	0.24264756
10	0xbe7c91ee	-0.24665043
11	0xbeb66815	-0.35626283
12	0xbdcf155e	-0.10111497
13	0x3e4ec5a6	0.20192584
14	0xbe5a07d4	-0.21292049
15	0xbeaf110f	-0.34192702
16	0xbd55cf88	-0.05219987
17	0xbecdacec	-0.4017099
18	0x3ea50797	0.32232353
19	0xbe8c751e	-0.27433103
20	0x3e996ef1	0.29967454
21	0xbe6d720f	-0.23188041
22	0x3e58b289	0.21161856
23	0xbdcf9166	-0.101351544

weight f4 [3, 6]
0	0x3e6dbee8	0.23217356
1	0xbd87ec4d	-0.06636868
2	0xbe7ea77c	-0.24868578
3	0x3d6f1944	0.058373705
4	0x3d06eb22	0.032939084
5	0xbde1f827	-0.110336594
6	0x3e940db3	0.28916702
7	0xbdae565b	-0.08512565
8	0xbe988543	-0.2978917
9	0xbec1fc24	-0.3788768
10	0x3e2d3a18	0.16916692
11	0xbdee9548	-0.11649567
12	0x3d0d623a	0.034517504
13	0x3e5b0f11	0.21392466
14	0x3eb56deb	0.35435423
15	0x3e58c412	0.21168545
16	0xbea6c400	-0.3257141
17	0x3d4c953e	0.049947016

bias f4 [3]
0	0x3be1228f	0.006870575
1	0x3eb188bb	0.3467463
2	0x3e7a6864	0.24453884
