models/04_lstm_tagger.pt (torch, 21911 bytes, 7 tensors)

weight f4 [9, 6]
0	0x3f58d191	0.8469477
1	0xbf9c5605	-1.2213751
2	0xbf8e1471	-1.1099988
3	0xbf9de733	-1.2336181
4	0x3eb7e529	0.35917023
5	0x3cd5f397	0.02611713
6	0xbfdc132f	-1.7193354
7	0x3f9f1431	1.2428037
8	0xbecb9b68	-0.39767003
9	0x3e800a16	0.25007695
10	0x3e631936	0.22177586
11	0x400cd476	2.2004676
12	0xbe207dd6	-0.15673003
13	0xbf928adb	-1.1448625
14	0xbfa2fa4d	-1.2732636
15	0x3e4cbbdb	0.19993536
16	0xbfa73873	-1.3064102
17	0xbfbb930d	-1.4654251
18	0xbf07ecd5	-0.5309575
19	0x3fb2b3ca	1.3961117
20	0xbf9e4d49	-1.2367336
21	0xbfd115c3	-1.6334766
22	0xc020fbef	-2.5153768
23	0xbca377dc	-0.019954614
24	0xbe98b53d	-0.29825774
25	0x3f9f8f28	1.2465563
26	0x3f8a4c85	1.0804602
27	0x3ea34c72	0.3189426
28	0x3eb1a718	0.34697795
29	0x3fa8e38a	1.319444
30	0xbeeb8e12	-0.4600683
31	0x3e4b93a5	0.1988054
32	0x3dab17db	0.083541594
33	0x3f1dc036	0.61621416
34	0xbfce914c	-1.6138091
35	0x3fe5dc88	1.7957926
36	0x3f0646b9	0.52451664
37	0xbf3b9aa9	-0.7328287
38	0xbd9b7c97	-0.07592123
39	0x3e50a2be	0.20374581
40	0xbf47019a	-0.7773682
41	0xbf0f102d	-0.5588406
42	0x3ea87fbb	0.3290995
43	0x3f3c9502	0.7366487
44	0x3ec67208	0.38758874
45	0x3e813ddf	0.25242516
46	0x3f50f024	0.81616426
47	0x3ecdbfee	0.40185493
48	0xbe496074	-0.196657
49	0xc0161504	-2.3450327
50	0x3e843a02	0.25825506
51	0x3fa313ee	1.2740457
52	0x3f8758c3	1.0573963
53	0x3f4e4d76	0.80586946

weight_ih_l0 f4 [24, 6]
0	0xbe959fce	-0.29223484
1	0x3dc6a047	0.09698539
2	0xbeb2afc6	-0.3489973
3	0xbea06adb	-0.31331524
4	0x3d5673a0	0.052356362
5	0x3ea40694	0.3203627
6	0xbe5a562e	-0.21321937
7	0xbd883456	-0.06650607
8	0xbc15ee27	-0.009151018
9	0xbeb9603e	-0.3620624
10	0xbe8f76d6	-0.28020352
11	0xbe532e36	-0.20623097
12	0xbeca4ce3	-0.39511785
13	0x3db097e9	0.086227246
14	0xbd117de2	-0.03552044
15	0xbe35bf49	-0.17748751
16	0xbb94fe26	-0.0045468984
17	0xbe3e611d	-0.18591733
18	0xbd814370	-0.06311691
19	0x3ec3e822	0.3826304
20	0x3e52174b	0.20516698
21	0xbd09edad	-0.03367393
22	0xbd295619	-0.041341875
23	0x3eb26fcf	0.34850928
24	0x3e868c0c	0.26278722
25	0xbea06aa9	-0.31331375
26	0xbe64f049	-0.22357287
27	0xbeb49c9d	-0.35275736
28	0xbe0c2f85	-0.13690002
29	0xbe365e6c	-0.17809457
30	0x3e14db4d	0.14536782
31	0xbeaafdc5	-0.33396736
32	0xbdd42b3c	-0.10359809
33	0x3e773d1a	0.24144402
34	0x3e887885	0.2665445
35	0x3e0f7940	0.14011097
36	0xbc11d9dc	-0.008902039
37	0x3e61adc3	0.22038941
38	0xbe892e55	-0.2679316
39	0xbd90ed2c	-0.07076487
40	0x3dcbe830	0.099563956
41	0xbd0a6faa	-0.033797897
42	0x3e357be5	0.17723043
43	0xbcedeac2	-0.029042605
44	0x3e667f09	0.22509398
45	0xbeb3f54b	-0.3514808
46	0x3e8beeed	0.27330723
47	0xbe7d8a75	-0.24759848
48	0x3c70f897	0.014707706
49	0x3e8a165e	0.2697019
50	0xbe8ae896	-0.27130574
51	0x3e117ecc	0.14208525
52	0xbd2b7cf0	-0.041867197
53	0x3e906b00	0.28206635
54	0xbeb5bbf2	-0.35494953
55	0x3c2d0949	0.010561296
56	0x3e7e0a19	0.2480854
57	0x3ea8642b	0.32888922
58	0xbe51ff9a	-0.2050766
59	0x3d24e03e	0.040252917
60	0xbea08296	-0.3134963
61	0x3eb51b31	0.35372308
62	0x3e9cf48d	0.30655327
63	0xbe37947a	-0.17927733
64	0xbe417055	-0.18890508
65	0x3e830d83	0.25596246
66	0xbe7bdc75	-0.24595816
67	0x3d4aea91	0.049540106
68	0xbebf2671	-0.37334016
69	0xbe3a787b	-0.18210022
70	0x3d8fd75e	0.070235
71	0xbd585ad2	-0.052820988
72	0xbe40a6b1	-0.18813588
73	0xbe39ceb4	-0.18145257
74	0xbe93d65f	-0.2887449
75	0xbe6ba141	-0.23010732
76	0x3ebd8a05	0.37019363
77	0x3e95d94e	0.29267353
78	0xbc18288f	-0.009287014
79	0x3e5300eb	0.20605819
80	0xbcaa92ba	-0.020821918
81	0x3e864d04	0.26230633
82	0xbeb505f7	-0.35356113
83	0x3ea09ea5	0.31371036
84	0xbe25736d	-0.16157313
85	0x3eb5a383	0.35476312
86	0x3e6a529a	0.22883072
87	0x3dd6d929	0.10490639
88	0x3d822fb4	0.06356755
89	0x3eb099f0	0.34492445
90	0xbd93edf0	-0.07223117
91	0xbeacb6e5	-0.33733287
92	0x3e4e33d1	0.20136954
93	0x3e2f76a8	0.17135108
94	0x3d8c833b	0.06860968
95	0xbe9be8f0	-0.30451155
96	0xbe9dfb91	-0.30855992
97	0xbdc5e56d	-0.096629
98	0x3d839e74	0.06426707
99	0x3db111f1	0.08646
100	0xbe9e257a	-0.30887967
101	0x3ea09fb3	0.3137184
102	0x3e0548b9	0.13016023
103	0x3eb4ec10	0.3533635
104	0xbe88fd9a	-0.26755983
105	0xbe97067f	-0.29497144
106	0xbbd13c23	-0.0063853427
107	0xbe9839ff	-0.29731748
108	0x3eb77c5b	0.35837063
109	0x3e8a3963	0.26996908
110	0xbecaba0a	-0.39595062
111	0xbdf52305	-0.1196957
112	0xbd0ad3b3	-0.0338933
113	0xbe2235da	-0.15840855
114	0x3e28d784	0.16488463
115	0xbe5ef2c4	-0.21772295
116	0xbe3c631a	-0.18397179
117	0x3e21d27f	0.15802954
118	0x3da65eb3	0.08123531
119	0x3e5a65a1	0.21327831
120	0x3e5578e5	0.20846899
121	0xbe64be8f	-0.22338317
122	0x3d221247	0.039568212
123	0xbec33233	-0.38124236
124	0xbe91b15d	-0.2845563
125	0x3de2eb8b	0.110800825
126	0x3e8ef627	0.27922174
127	0x3d44227f	0.04788446
128	0xbe8dc920	-0.2769251
129	0xbec98c8f	-0.3936505
130	0xbe70d318	-0.23518026
131	0x3e779099	0.24176253
132	0xbca2da59	-0.019879507
133	0xbe947a95	-0.28999773
134	0xbe52b495	-0.20576699
135	0xbe05b07d	-0.13055606
136	0xbe2ef29a	-0.17084733
137	0xbe095c00	-0.13414001
138	0x3eb42c0d	0.35189858
139	0x3eb98440	0.3623371
140	0x3d415b5a	0.04720626
141	0xbe38ccc5	-0.18046863
142	0x3ea7f0e0	0.3280096
143	0xbe4e5e38	-0.20153129

weight_hh_l0 f4 [24, 6]
0	0xbea831bc	-0.32850444
1	0x3e8d5bd6	0.27609128
2	0xbea6e84c	-0.32599103
3	0xbd950e7f	-0.072781555
4	0x3e7a2998	0.2442993
5	0x3de9e5a8	0.114207566
6	0xbe8d7788	-0.27630258
7	0xbde8e80e	-0.11372386
8	0xbeb119cf	-0.34590003
9	0xbe9928a8	-0.2991383
10	0x3e840275	0.25783125
11	0x3d8b4ae4	0.06801394
12	0x3e4c4cc8	0.19951165
13	0x3b9ada17	0.0047257054
14	0x3d478bf1	0.048717443
15	0x3dcc7403	0.09983065
16	0x3def28a7	0.11677676
17	0x3e95bd54	0.29246008
18	0xbea56b5b	-0.32308468
19	0xbeaeab6b	-0.34115157
20	0xbe7d2d82	-0.24724391
21	0xbdc7ea23	-0.09761455
22	0xbe87b39d	-0.26504222
23	0xbeca51fd	-0.39515677
24	0x3eb3b667	0.351001
25	0x3e631b67	0.22178422
26	0x3d5a2721	0.053259972
27	0x3dd8c4b2	0.10584392
28	0x3e0592cc	0.1304428
29	0xbd49d82b	-0.04927842
30	0x3dcbfc56	0.09960239
31	0xbeccdbdd	-0.40011492
32	0xbdbec5b6	-0.09315054
33	0x3eaa0137	0.33204052
34	0xbe4d58fb	-0.20053475
35	0xbd513cb2	-0.051083274
36	0x3da37cc9	0.07982785
37	0x3eb8c7ce	0.3608994
38	0xbeb2f051	-0.34948972
39	0x3ea6dba6	0.32589453
40	0xbe366b1c	-0.17814296
41	0xbe057ada	-0.13035145
42	0xbecf3bfb	-0.4047545
43	0xbe608795	-0.2192672
44	0xbeb62d70	-0.3558154
45	0x3e60c36c	0.21949548
46	0xbe46c6e4	-0.19411808
47	0x3eab5460	0.3346281
48	0xbe843cd4	-0.25827658
49	0xbeba501e	-0.3638925
50	0x3e93464f	0.2876458
51	0x3ec552b6	0.38539666
52	0x3ea71448	0.3263266
53	0xbda1d429	-0.079017945
54	0x3e5494ec	0.20759934
55	0x3e866a6c	0.26253068
56	0x3e0aa17f	0.13538168
57	0x3ea3d131	0.31995538
58	0xbc837c32	-0.016050432
59	0xbebc3900	-0.36762238
60	0xbec12c6b	-0.377292
61	0x3e107251	0.14106108
62	0x3df6015f	0.1201198
63	0xbd63a421	-0.055576447
64	0x3e8cff25	0.2753841
65	0x3e325ef1	0.1741903
66	0x3eb65b25	0.35616413
67	0x3e9e72b9	0.309469
68	0x3ebc67ae	0.3679785
69	0x3ec1deaf	0.37865207
70	0xbdc3ee32	-0.095669165
71	0x3e612c9d	0.21989675
72	0x3e1d683d	0.15371795
73	0x3d1240bf	0.035706278
74	0xbde9c32b	-0.114141785
75	0x3e3be995	0.18350823
76	0xbe40a585	-0.1881314
77	0xbd4fdc49	-0.05074719
78	0xbe046cf8	-0.12932193
79	0x3e7e4d03	0.24834065
80	0xbe0f9a93	-0.14023809
81	0xbd253f5f	-0.04034364
82	0x3a0a90b0	0.00052858423
83	0xbe9e5f8d	-0.30932274
84	0x3ec6e9ec	0.38850343
85	0x3daa6096	0.083192036
86	0x3e9d2fe1	0.3070059
87	0xbd45eb97	-0.04832038
88	0xbe42e6eb	-0.190334
89	0x3e6844f1	0.22682549
90	0x3e59b02c	0.2125861
91	0x3e576222	0.21033528
92	0x3ecef4a1	0.40421012
93	0x3ea3eee5	0.320182
94	0x3c8c0217	0.01709084
95	0xbda35155	-0.07974497
96	0xbe38694c	-0.18008918
97	0x3e6e3dee	0.23265812
98	0xbea46180	-0.32105637
99	0xbe024608	-0.12722027
100	0xbd873aec	-0.06603035
101	0x3e0a7cd5	0.13524182
102	0x3e95d349	0.2926276
103	0xbe8b666c	-0.2722658
104	0xbdb444d4	-0.088021904
105	0xbe6abc69	-0.22923435
106	0x3ea080e6	0.31348342
107	0x3e2382c2	0.15967849
108	0x3e8df851	0.27728513
109	0xbe95d9a5	-0.29267612
110	0x3ebcc588	0.36869454
111	0x3e492ee5	0.19646795
112	0x3c58b7b9	0.013227397
113	0x3c9a6062	0.018844787
114	0x3e11bda8	0.14232504
115	0x3e381fb4	0.17980844
116	0x3ddd4e82	0.1080599
117	0xbe96b6f9	-0.29436472
118	0xbe139340	-0.1441164
119	0x3e1f5599	0.15559997
120	0x3e983420	0.29727268
121	0xbe9ca9f0	-0.30598402
122	0x3e15c399	0.14625396
123	0xbe75bd4e	-0.23997995
124	0x3e5b2c5b	0.21403639
125	0x3eada8f2	0.33917958
126	0xbe554b66	-0.20829543
127	0xbe1526eb	-0.14565627
128	0xbe0ccfa8	-0.1375109
129	0x3e0f109f	0.13971184
130	0x3e1ff32d	0.15620108
131	0x3d3a8ee0	0.045546412
132	0xbeafc623	-0.34330854
133	0xbe143267	-0.14472352
134	0x3d524bc5	0.05134179
135	0xbe014040	-0.12622166
136	0xbea6e37e	-0.32595438
137	0xbd663a13	-0.056207728
138	0xbcfb147b	-0.030649414
139	0xbe71b5d4	-0.23604518
140	0x3ec3a143	0.3820897
141	0x3e84ad31	0.25913385
142	0xbe0c328d	-0.13691159
143	0xbd584cc0	-0.05280757

bias_ih_l0 f4 [24]
0	0xbecd547f	-0.40103528
1	0xbe1c8a1c	-0.1528706
2	0xbe11aa9c	-0.14225239
3	0x3d9c416d	0.076296665
4	0xbc22bb64	-0.009932373
5	0xbecf8f69	-0.405391
6	0xbe91d20d	-0.2848057
7	0xbea6ce5a	-0.3257931
8	0x3dbcfda1	0.092280634
9	0xbe278b23	-0.1636167
10	0x3d7aa8c1	0.061196093
11	0xbecca5f4	-0.39970362
12	0x3ea4a163	0.32154378
13	0x3e8e23db	0.2776173
14	0x3e4d064b	0.20021932
15	0x3eb70a88	0.35750222
16	0x3e2a2a7d	0.1661777
17	0x3e1333d2	0.14375237
18	0xbd982342	-0.074286
19	0x3ec85875	0.39129987
20	0x3e9929f1	0.2991481
21	0x3e1c650f	0.15272926
22	0xbe063aa0	-0.13108301
23	0xbea47930	-0.3212371

bias_hh_l0 f4 [24]
0	0x3e161310	0.1465571
1	0xbe986722	-0.29766184
2	0xbe543f80	-0.20727348
3	0x3eb3ff20	0.35155582
4	0xbe15fc26	-0.14646968
5	0x3e937482	0.28799826
6	0xbdd7788f	-0.105210416
7	0x3d869f18	0.065733135
8	0x3e1d5d7b	0.15367691
9	0x3ec7e938	0.3904512
10	0xbe8fe273	-0.28102455
11	0xbe177010	-0.14788842
12	0x3eb3a5d8	0.35087466
13	0x3e8bfd06	0.2734148
14	0x3ead1f70	0.33813047
15	0x3e940414	0.2890936
16	0x3d7bce76	0.061476193
17	0xbe8b3b6a	-0.27193767
18	0x3d28996c	0.04116194
19	0xbe3b7932	-0.18307951
20	0xbdda9eea	-0.10674842
21	0xbea6915a	-0.3253277
22	0xbeca8fc1	-0.395628
23	0x3e916e69	0.2840455

weight f4 [3, 6]
0	0xbea03e7d	-0.31297675
1	0xbe21ecf2	-0.15813044
2	0x3b9061ff	0.0044062133
3	0x3ea51433	0.32241973
4	0x3e94061b	0.28910908
5	0xbec0fbfd	-0.37692252
6	0xbe884e27	-0.26622126
7	0x3e12c86f	0.14334272
8	0xbeb3342e	-0.35000747
9	0x3e9a9385	0.30190673
10	0xbe06dae0	-0.13169432
11	0xbe701731	-0.23446347
12	0x3db93f67	0.09045296
13	0x3e0b76c0	0.13619518
14	0xbe2064c8	-0.15663445
15	0xbeb9abe7	-0.36263964
16	0x3e43a041	0.19104101
17	0x3d16831f	0.03674614

bias f4 [3]
0	0x3cc0b899	0.023525523
1	0x3eca8f78	0.39562583
2	0x3ea80e46	0.3282339
