models/06_fashion_clf.pt (torch, 181338 bytes, 10 tensors)

conv1.weight f4 [6, 1, 5, 5]
000000 39 e6 9e be 0a 94 13 3f a0 41 9c 3e f3 bd 01 bf
       -0.3103502 0.57647765 0.30518818 -0.50680465
000010 d7 56 97 be 63 a8 bc be a7 5a ec 3e 16 e0 0c 3f
       -0.2955844 -0.3684722 0.46162912 0.5502943
000020 af 46 2e be 5c 0f b3 be 38 9d 84 be f4 98 1b 3f
       -0.17019151 -0.34972656 -0.25901198 0.6078026
000030 2d 7b 33 3e 42 05 23 be 3e 55 ff bd 6a 7a 8d be
       0.17527457 -0.15919974 -0.124674305 -0.27632457
000040 fc d0 b7 3e fd 91 48 3e 47 22 af 3d b3 f2 75 be
       0.3590163 0.1958694 0.0855146 -0.24018364
000050 b6 7d 9b be 3f 40 4c 3e f4 e1 84 bd 72 31 4c 3e
       -0.30369347 0.19946383 -0.0648841 0.19940737
000060 65 67 4a 3d 8b a7 75 be cc d5 8a be a1 bc 8c be
       0.04941501 -0.23989694 -0.2711624 -0.27487662
000070 fb 46 e6 3e f2 1d 0b 3f 0d d3 9b be bb cb 6a be
       0.4497603 0.5434257 -0.30434456 -0.2292928
000080 98 f9 86 3e 01 e3 84 3e 98 23 2a 3f 13 d6 a0 be
       0.263623 0.2595444 0.6646056 -0.31413326
000090 61 87 07 bd c9 95 75 be 01 cd 56 3e 5e 39 bf 3e
       -0.03308809 -0.2398292 0.2097664 0.37348455
0000a0 92 e9 f9 bd 25 30 6a 3d 60 89 fd be c0 71 8b 3a
       -0.12202753 0.05717482 -0.4951887 0.0010638759
0000b0 45 77 0c 3f e5 e6 56 be 71 92 b3 be 1c 16 b4 be
       0.5486949 -0.20986517 -0.35072663 -0.35173118
0000c0 f5 2a 49 3e af 84 24 3e 91 af 47 bf 72 a3 de be
       0.19645293 0.1606624 -0.7800227 -0.43484074
0000d0 7b 39 6d 3d c1 4f 59 3e 5a 2d 3c 3e 0a bc 29 bf
       0.057916146 0.2122183 0.18376675 -0.6630255
0000e0 7a ef 3b 3e 00 f9 11 3e 17 14 79 3e 30 51 ef 3d
       0.18353072 0.14255142 0.2432407 0.11685407
0000f0 25 0c 33 be 32 56 f8 3d 66 6c 69 bc 9c fd 47 3e
       -0.17485102 0.121258155 -0.014247036 0.19530338
000100 16 cb 0a 3e a6 fc c9 be c5 74 b2 3d a8 b0 20 3a
       0.13554034 -0.39450568 0.08713678 0.00061298395
000110 a9 12 d1 3c 49 c4 19 3e 29 7b c1 be f5 f9 90 3e
       0.025521593 0.15016283 -0.37789276 0.28315702
000120 4b 53 63 3e 58 ae d8 3e 2b bd 13 bd 6e b9 43 be
       0.22199742 0.42320514 -0.036069077 -0.19113705
000130 9f 10 1d be 0a c3 a5 be 01 6c 53 3d 55 1d b5 bd
       -0.15338372 -0.32375365 0.051616672 -0.08843485
000140 5a 42 df 3d 75 31 d8 be 08 fd 0e bf c4 20 1a bf
       0.109013274 -0.42225233 -0.55854845 -0.60206246
000150 1b 40 98 be 4a 4e 73 3e 8d 08 db bd d1 53 f7 be
       -0.2973641 0.23760334 -0.1069499 -0.48306134
000160 3d 8d f4 be 13 00 ec bd 75 e1 49 3e 8c 03 84 3e
       -0.47764006 -0.11523452 0.19714911 0.25783956
000170 e2 35 16 3d 9d 2d ab bd ed 08 df 3d d2 d8 5a 3d
       0.03667248 -0.083583094 0.10890374 0.053429432
000180 29 a3 b8 3c 3e 70 fc 3d bd c2 e5 bc 44 59 42 3e
       0.022538738 0.12326096 -0.02804696 0.18979365
000190 ea 08 47 3e 09 6c 1c 3e 7e 97 91 3e 77 fe ec 3e
       0.19436994 0.15275587 0.28435892 0.4628789
0001a0 84 89 09 3e d8 b5 87 3e c8 6f 12 3f 48 ed ae 3e
       0.13431364 0.26505923 0.57201815 0.34165406
0001b0 85 44 b0 3e c2 6b 89 3e ca c2 b2 3e 1e c6 7a bd
       0.34427276 0.26840025 0.34914237 -0.061224096
0001c0 86 52 e3 3e 9b 7d 8c 3e 25 f3 3c be 27 a0 ae bc
       0.44398898 0.2743958 -0.18452127 -0.021316601
0001d0 c9 75 e9 be f0 b0 b4 be 45 5b 90 be 4b d4 9d be
       -0.45597675 -0.35291243 -0.28194633 -0.3082603
0001e0 43 3f 8a be 66 96 b7 be 11 78 bf be 11 78 ea be
       -0.2700139 -0.35856932 -0.3739629 -0.45794728
0001f0 a2 a4 92 be 18 da 65 be 68 2e 4f 3e a6 e4 68 be
       -0.2864123 -0.22446477 0.20232546 -0.22743472
000200 2a 03 7b ba 41 fe 04 be 33 78 eb be 68 6a a5 3b
       -0.00095753616 -0.12987615 -0.45990142 0.005048085
000210 14 59 79 be 34 7e 06 bf 70 f9 cf be d6 d9 8f be
       -0.24350387 -0.5253632 -0.40619993 -0.28095883
000220 a8 8f 99 3e 57 44 5f be 7e db 86 be 56 50 20 3e
       0.29992414 -0.21803413 -0.26339334 0.15655646
000230 fd 2f a4 be 62 bb 6c 3e 35 d6 d6 3e 05 4e c5 3e
       -0.32067862 0.23118356 0.41960302 0.38536087
000240 04 1c 51 3e 07 de c8 be aa bf df 3d 89 07 b7 3e
       0.20420843 -0.39231893 0.10925229 0.35747936
000250 5d 8a b1 3e e8 d7 0f bd
       0.34675875 -0.035118014

conv1.bias f4 [6]
000000 9b f5 b2 bd e0 92 03 3d 8a 6e 33 3e d0 b5 6a bf
       -0.08738252 0.032122493 0.17522636 -0.91683674
000010 23 6d 20 bc 25 f1 f4 be
       -0.009791645 -0.4784023

conv2.weight f4 [16, 6, 5, 5]
000000 f2 04 be bc 2d 0b 27 be 58 c8 c5 bb 12 3b a2 ba
       -0.023195717 -0.16312857 -0.0060358457 -0.0012377223
000010 67 c6 75 bd 5f 9a b9 bd 72 06 34 be db 33 e4 3c
       -0.060003664 -0.09062647 -0.17580584 0.027856758
000020 1e 70 0a be 1e 03 b5 bd ef 00 e3 bd 9b ed b0 bd
       -0.13519332 -0.08838485 -0.110841624 -0.0863907
000030 d3 ac 53 3d 9c a4 16 be 27 07 b5 bc e2 8b c3 3c
       0.05167849 -0.14711231 -0.022098137 0.023870412
000040 eb 8c 61 3d 96 5e 64 3d 22 0d aa 3c 19 93 c5 3b
       0.05506603 0.055754267 0.020758215 0.0060294983
000050 38 ac e6 bc c2 40 ec bb bc 57 5d bd 43 25 81 bc
       -0.028158292 -0.007209868 -0.05403875 -0.015764838
000060 0c 69 99 bd 0b be df bd 28 17 89 bd 25 b5 4e bc
       -0.07490739 -0.1092492 -0.0669387 -0.01261643
000070 4d e5 34 3c 60 f9 d9 bd d2 0e 17 bd a0 b4 86 3d
       0.011040998 -0.10643268 -0.036879368 0.0657742
000080 7a 95 b4 bd 42 b0 05 3c 58 45 b6 bd 80 54 e6 3b
       -0.08817573 0.008159699 -0.08899945 0.007029116
000090 0f e8 96 bd 2b 07 bf bb 3e 45 a8 bc 6a cb c2 bd
       -0.073684804 -0.005829712 -0.02054083 -0.095114544
0000a0 fd bc ba bd 1f b6 1a 3d 5b 67 d1 bc 1a 00 c0 3d
       -0.09118078 0.03777134 -0.025561979 0.09375019
0000b0 a0 6b 12 bd 3d 98 f9 3c 1e 18 7a bd d8 e8 63 bc
       -0.03574717 0.0304681 -0.061058156 -0.013910495
0000c0 a2 0d 38 bd 1d f0 9e 3d b1 4f c4 bd 22 5f c3 bd
       -0.044934876 0.07760642 -0.095855124 -0.095396295
0000d0 74 ba 80 bd 17 62 8b bc c8 c2 bc bd 94 81 7f bc
       -0.06285563 -0.017014546 -0.09216839 -0.015594859
0000e0 9e 0c bd bd 27 75 ac 3c a2 d1 5d bd c1 cd 01 bd
       -0.09230922 0.021051956 -0.054155 -0.031690363
0000f0 22 5a fa bd 29 c9 a6 bd f6 47 30 bd 66 28 e2 bd
       -0.12224223 -0.08143837 -0.043037377 -0.11042862
000100 7f ec b8 bd 7c 26 3b bd 1b ce e6 3c 75 65 aa bd
       -0.09029483 -0.045691 0.02817445 -0.08320133
000110 5d 35 56 3b bb f9 fa 3c 91 52 aa bd b1 18 bf bd
       0.0032685616 0.030636659 -0.083165295 -0.093308814
000120 59 c7 92 bc 9d 5d 6e 3c 6f ea 01 bc db ef 41 bd
       -0.017917322 0.014548686 -0.0079294285 -0.047347885
000130 e3 ab 3c 3d 89 f4 5c bd d0 a1 96 3d 68 b7 73 bc
       0.04606236 -0.053944144 0.07355082 -0.01487527
000140 2d bd fa 3a 70 c4 ce bd c3 5a 94 bd 20 2d 8a bd
       0.0019129865 -0.10096061 -0.07243874 -0.06746888
000150 74 d6 86 bd da e3 43 3d 30 22 b7 bd 47 38 8a 3c
       -0.065838724 0.047824718 -0.089420676 0.016872538
000160 4c 75 97 ba 96 d6 a3 bc 08 01 b0 bd 94 31 60 bd
       -0.0011555343 -0.019999783 -0.08593947 -0.05473478
000170 04 55 9e bd 9c de 6b bd 91 73 0f 3d 47 0f 11 bd
       -0.07731059 -0.057585344 0.035022322 -0.03541496
000180 c9 b4 06 bb 16 b2 15 bd 8a b3 20 3d a9 78 a3 bd
       -0.0020554534 -0.03654679 0.03923372 -0.079819985
000190 29 6b c7 bd ad 39 be bd 3c 67 af bd c0 d8 28 bb
       -0.09737236 -0.092883445 -0.08564612 -0.0025763959
0001a0 a6 6a 12 3c d4 74 d8 3c 8e 9f 0b bd 5d ee c4 bd
       0.00893656 0.026422895 -0.03408771 -0.09615777
0001b0 2c 53 dc 3c e7 2b 57 bd ff e8 4e bd 8e 4e 32 3d
       0.026895128 -0.052532103 -0.05051517 0.043531947
0001c0 f2 e3 1b bd 58 7f 3e bd 79 d1 2a bc 20 e7 7a 3d
       -0.038059182 -0.046508163 -0.010425919 0.061255574
0001d0 c2 8d c3 bd 2f 07 d0 bd 2c b7 32 be b0 b2 b1 bd
       -0.095485225 -0.1015762 -0.17452687 -0.0867666
0001e0 01 55 48 3d d6 7d 63 bc 7a ca 4e bb c5 b3 22 3d
       0.04890919 -0.013884982 -0.003155379 0.039722223
0001f0 a8 e8 6b bd 7b e0 50 3b 0c ec c0 bd 44 a6 91 bd
       -0.057594925 0.0031872082 -0.09420022 -0.07111791
000200 75 14 9b bd 99 56 09 bd e1 42 b0 bd 40 de a8 bd
       -0.07572261 -0.03352985 -0.08606506 -0.08245516
000210 cc 1c d4 bd e7 d0 4f bd 12 eb 71 bd 2a c7 60 3d
       -0.10357055 -0.050736334 -0.05906207 0.054877438
000220 15 c6 26 3d 93 2c 9b 3c a2 80 a0 bc 5f 2a 9c bd
       0.04071625 0.018942153 -0.019592587 -0.07625269
000230 ec 4f 51 3d 03 31 43 3d 6b 48 0a 3d 32 01 00 bd
       0.05110161 0.047654163 0.03376047 -0.03125114
000240 aa 3a 81 3d cc d2 f0 bd 39 44 5f bd b6 ec 9f bd
       0.063100174 -0.11758956 -0.05450842 -0.07808821
000250 32 02 57 3c 94 52 ae bc 81 9d 9e 3e 61 19 83 3e
       0.013123082 -0.02127961 0.3097954 0.256053
000260 aa f9 5b 3f 02 86 84 3e 6a 1f 16 be 8b a7 42 3e
       0.8592783 0.2588349 -0.14660421 0.19009225
000270 f5 e0 de 3e fc 9c b7 3e b3 68 35 3f a6 59 13 bd
       0.43531004 0.35861957 0.70862883 -0.035974167
000280 39 a9 98 3d a3 92 23 3e f2 8e 30 be 07 f2 8b 3e
       0.07454152 0.15973906 -0.1724203 0.2733309
000290 34 ae d2 bc 4d 01 17 3d e5 8e 2b bd f1 c0 99 be
       -0.025717832 0.036866475 -0.04188432 -0.30030015
0002a0 b9 f2 00 be 82 96 13 be 6a 3d f3 3b 8a 87 7b be
       -0.12592591 -0.14412883 0.0074230926 -0.24563423
0002b0 09 a6 d7 be 5b b6 d4 be b3 8b 40 be 8d e9 6d bd
       -0.42118862 -0.41545376 -0.18803291 -0.05808406
0002c0 47 57 bc bc 28 51 78 3d b4 31 84 3e 55 9e ba 3e
       -0.022990836 0.06062427 0.2581917 0.36448923
0002d0 89 20 26 3d 8d 60 37 3d 78 f4 a5 3e 2d b6 08 be
       0.04055837 0.044769812 0.32413077 -0.13350745
0002e0 a4 bb 9e 3c 99 0b 11 bc 0a 60 2f be 80 54 46 3d
       0.019376583 -0.008852863 -0.1712648 0.04842043
0002f0 2b 31 8a be da 2b d1 3d aa c3 87 be 06 ca 97 be
       -0.26990637 0.10213442 -0.26516467 -0.2964632
000300 9a 5a 7d be c0 de c4 be 7b f5 bd bd d2 01 d5 be
       -0.24741593 -0.38451195 -0.09275337 -0.4160295
000310 75 b9 b1 be c9 e7 1f be cd 28 f3 bd f8 de 91 be
       -0.34711805 -0.15615763 -0.118730165 -0.28490424
000320 32 1f 95 3e 3d 51 a1 be 8f 4f 30 bd 19 50 81 be
       0.29125363 -0.31507292 -0.043044623 -0.25256422
000330 23 78 66 3e 9b 62 bd 3c dc b0 fb 3c 5b 14 91 3e
       0.22506766 0.023118308 0.030723982 0.28335842
000340 c0 3c 61 be a5 42 36 3d 42 dc 2f be 49 6a 8a be
       -0.2199583 0.04449715 -0.17173865 -0.27034214
000350 a0 f6 d9 3d c6 27 21 be d7 8b 0f be 05 4c d5 be
       0.10642743 -0.15737829 -0.14018188 -0.4165956
000360 87 bc ca be 8b 1f 6b 3d 79 11 a8 bd fb 3e af bd
       -0.3959696 0.05740313 -0.08206458 -0.085569344
000370 16 d2 40 be 71 8c c5 be 5b 54 ef bc 41 94 8d 3e
       -0.18830141 -0.3858371 -0.029215029 0.2765217
000380 6c 65 8e be be ee f4 3d 44 5d ef 3d a8 96 c4 3d
       -0.27811754 0.11959599 0.11687711 0.09599048
000390 0b 96 1e 3f 31 08 b6 3e fa cc ef 3c 62 bd a1 3d
       0.619477 0.35553125 0.029272545 0.0789745
0003a0 4d 4b cf bc 7f ab 1c 3d db 2f d5 3e 9a e9 17 be
       -0.02530446 0.03824949 0.41638073 -0.14835206
0003b0 94 c2 31 3e 33 7a f8 3d 01 46 e8 bd 0f 36 29 3e
       0.17359382 0.12132683 -0.11341477 0.16524528
0003c0 85 b6 87 be 9c f5 2e bd 9f 70 99 bd cb 69 dc 3c
       -0.2650644 -0.0427147 -0.07492184 0.026905915
0003d0 fd d5 0a 3e c9 b3 79 be 4a e3 76 bd 4d 49 2d be
       0.13558193 -0.24384989 -0.060275353 -0.16922493
0003e0 9f b1 40 be e1 1e b3 bd 5d 46 97 3e 03 73 53 bd
       -0.18817757 -0.08746124 0.2954587 -0.051623356
0003f0 3e c1 ca be 6c 11 fd be 27 0f 85 be 81 3f 8b 3e
       -0.39600557 -0.49427354 -0.25988123 0.27196887

conv2.bias f4 [16]
000000 78 98 cf bd 56 dd 4a bd 62 85 2b be c1 b4 e3 bd
       -0.10136503 -0.04952749 -0.167501 -0.111184604
000010 96 01 d3 bd 7c 11 d5 be 7b d3 01 be 2f ac 14 be
       -0.10303037 -0.41614902 -0.1267833 -0.14518808
000020 b9 e2 f6 bd 1d 0b 28 be 96 e4 71 3d 41 eb fb 3d
       -0.12054963 -0.1641049 0.059055887 0.123007305
000030 24 47 9d be e9 a7 9f 3e 15 ef 6e be 19 f7 1b be
       -0.30718338 0.31182793 -0.2333339 -0.15230979

fc1.weight f4 [120, 256]
000000 68 8c 5e bd 56 61 4d bc d1 a1 f2 bc 06 03 b1 bc
       -0.05433312 -0.012535414 -0.029618176 -0.021607887
000010 ee 9d a5 bd 3b d4 a3 bd bc 3e d1 bc 84 7b 96 bc
       -0.08086763 -0.07999464 -0.02554261 -0.018369444
000020 79 58 91 bd aa 86 7b 3d 8e 46 27 bd c7 45 50 bd
       -0.07096953 0.061407723 -0.04083877 -0.050847795
000030 fe 16 78 bd af 77 0b bd c4 08 93 bd 40 8d 46 bc
       -0.060568802 -0.034049686 -0.07179406 -0.012118638
000040 94 ee 97 3e a9 ac 8b 3e f1 ad 7e 3e f1 33 17 bf
       0.29674208 0.27280167 0.24871041 -0.5906363
000050 4a c1 1d 3e d5 84 22 3c 6f 37 2f 3e d9 6a 53 be
       0.15405765 0.009919365 0.1711099 -0.20646228
000060 e0 10 09 3d 80 5b 8b 3e 51 d5 3a 3e e1 06 13 bd
       0.03346336 0.27218246 0.18245436 -0.035895232
000070 89 b3 a4 bd c6 68 c8 3d 28 fe 0b be 99 67 81 be
       -0.08042056 0.09785609 -0.13671172 -0.2527435
000080 02 d0 31 3e d7 1b 15 bf 4b 1e 3a be 5e bf 12 bf
       0.17364505 -0.58245605 -0.18175618 -0.57323253
000090 f7 13 05 3d 7d 49 09 bf 21 ee 5c 3d 49 73 be be
       0.032489743 -0.5362776 0.053938035 -0.3719733
0000a0 96 4a 48 bc cc 31 c1 be 54 43 1f be b2 df 81 be
       -0.012224814 -0.37733305 -0.15553027 -0.25365978
0000b0 c2 5e b9 bd 4d 73 a2 be 81 ef bf bc cb f0 4b bd
       -0.09051277 -0.31728593 -0.023429634 -0.049790185
0000c0 c2 e0 13 3e 40 f8 73 3e 10 8c 56 3e 94 e3 cc 3d
       0.14441207 0.23825169 0.20951867 0.100043446
0000d0 ca 5d a6 3d 9f f9 4d be 84 ca 49 3e 07 0c b2 3d
       0.081233576 -0.20114754 0.1970616 0.086937
0000e0 5f 5c 4f be 2c dd ea be 48 2b 9b 3e 8a 7b 2b bc
       -0.2025008 -0.45871866 0.30306458 -0.010466466
0000f0 fe 88 58 bd 44 0e 5c bd 3c 13 fc 3e 1c d4 0f bd
       -0.05286502 -0.053724542 0.49233425 -0.035114393
000100 c1 38 ff 3e 99 ab 21 3d 81 88 9c 3e 37 46 35 bd
       0.49847987 0.03947029 0.30572894 -0.044256415
000110 93 50 71 3d d3 31 71 bb f0 68 cd 3d 11 5a 8c 3b
       0.058914732 -0.003680338 0.10029781 0.0042831977
000120 f3 6f 17 3d 05 d9 a7 bd cb 59 f8 3c 43 19 84 bd
       0.036971997 -0.0819569 0.030316254 -0.06450131
000130 36 f0 f8 bd e4 d7 38 be 12 5d d4 bd 1b 21 0d be
       -0.121551916 -0.18051106 -0.10369314 -0.1378216
000140 e1 66 bb bd 3b e8 d0 bd a0 a3 bc 3e cb b9 d3 3e
       -0.09150482 -0.102005444 0.36843586 0.41352686
000150 7d f4 a9 bd b4 73 10 be b5 bc 23 3d f8 07 08 be
       -0.082985856 -0.14106637 0.039974887 -0.1328429
000160 74 0e bb bd 09 85 88 be 9c 9a 93 bd 7f bd b4 bd
       -0.09133616 -0.26663998 -0.07207224 -0.08825206
000170 ea 4d fc be 9c 81 db be 11 4b 83 be 23 81 e3 be
       -0.49278194 -0.42872322 -0.2564321 -0.4443446
000180 04 4d 3f 3d 87 a2 28 bd cc 25 61 3e 38 a6 41 3e
       0.046704307 -0.041170623 0.21987075 0.18911064
000190 c3 76 40 3e 9a ef 31 3d a7 f2 d3 3d 68 6b 75 3d
       0.18795304 0.043441392 0.10349017 0.059916884
0001a0 da f3 7c be 50 0b f6 be f2 9b 21 3d 10 8d a0 3d
       -0.24702397 -0.48055506 0.03945536 0.078394055
0001b0 8d d7 55 be 9a 30 1b be 00 17 9b 3c 6a 88 61 3d
       -0.20883007 -0.15155259 0.018931866 0.055061735
0001c0 6c 54 0a 3e 32 44 23 3e 56 85 05 be 26 75 45 be
       0.13508767 0.15943983 -0.13039145 -0.1928297
0001d0 78 00 33 be d5 ed e9 3d 41 4f 06 3e f5 84 28 3e
       -0.17480648 0.11422316 0.1311617 0.16456969
0001e0 e8 84 0c be 13 3c 47 3e 37 f6 cf bc 70 d2 28 3d
       -0.13722575 0.1945651 -0.02538596 0.041216314
0001f0 d0 b2 33 be 49 a6 23 3e 30 ea 01 3d 11 ce 49 3e
       -0.1754868 0.15981402 0.03171748 0.19707514
000200 e3 fd 2c 3e 46 ef 86 bd 63 51 f5 bd d1 7f 5c 3d
       0.16893725 -0.065886065 -0.11978414 0.053832833
000210 cb 92 a5 3c f0 0c 9a bc 36 fd c7 be 1d 2e 91 bd
       0.020211598 -0.018804997 -0.39060372 -0.070888735
000220 0b 2d 93 3e 2b f1 a7 bc e4 d2 b6 bd bb e4 85 3d
       0.28745303 -0.02050074 -0.08926943 0.065377675
000230 30 9a e1 3e df 04 50 bc df c6 5f be 53 21 2b 3d
       0.44062948 -0.012696474 -0.21853207 0.041779827
000240 51 4b 2f be d5 29 4f 3e 11 65 87 3e 66 3e cc 3d
       -0.17118575 0.20230801 0.26444295 0.09972839
000250 a8 af 24 be c0 68 80 3e b5 14 1d be 91 28 37 3c
       -0.16082633 0.25079918 -0.1533993 0.011179105
000260 fd 3d 44 3d ae 48 7b 3e b2 66 4a bc e4 e9 0d be
       0.04791068 0.24539444 -0.012353586 -0.13858753
000270 b7 68 66 bd 4f 1f a5 bd 2c 51 05 3c 4a 81 3b be
       -0.056252208 -0.08062612 0.008137029 -0.18311039
000280 17 cc 47 bd 8b 29 f9 bd 98 7f 48 be 71 63 75 3e
       -0.04877862 -0.12166127 -0.19579923 0.23963715
000290 f7 04 16 be 88 ea 43 bc c0 98 41 3e dd 15 bc bd
       -0.14650331 -0.011957772 0.18905926 -0.091838576
0002a0 6b db bf bd 01 d0 1e be fc 5c 65 be 18 05 89 bd
       -0.093680225 -0.15509035 -0.22398752 -0.06690425
0002b0 bf 75 ab 3b 07 0f 01 be 78 5d 80 bd 18 55 88 3e
       0.0052325423 -0.12603389 -0.06267828 0.2662742
0002c0 95 10 a4 3e cd 76 0a 3e 2f 3e b7 3e 35 6b fd 3d
       0.320439 0.13521881 0.3578963 0.12373964
0002d0 62 d2 94 bd 8c e4 cc bd 41 5c f6 3d 3c c9 cc bb
       -0.0726669 -0.10004529 0.12029315 -0.006249575
0002e0 a6 e2 76 be 5f af 80 bd f4 98 c9 bd 33 73 f9 bd
       -0.24109897 -0.062834494 -0.098436266 -0.12180176
0002f0 4a d0 2b be 7f 38 5d be ad 65 a9 be 7d 84 8c be
       -0.16778675 -0.21603583 -0.33085385 -0.2744483
000300 f4 14 f0 3c 2b 19 e0 bd 3e 9d b1 3d a2 6b 18 bf
       0.029306866 -0.109423004 0.0867257 -0.59539235
000310 e4 0c c8 3d 47 76 55 3d 1b bc 32 3e 9c 73 de be
       0.09768084 0.05211475 0.17454569 -0.43447578
000320 e8 d1 6b 3e 94 b4 26 3e 3a 4a e7 be 2b e6 88 be
       0.23029292 0.16279823 -0.45173818 -0.26738104
000330 67 1d 8d 3e 3d d7 4a 3e dc 63 dd be 10 bf 92 be
       0.27561495 0.1980867 -0.4324025 -0.28661394
000340 4e 17 e6 3e 3d 85 42 3d 57 94 ca bd 71 e8 9b 3d
       0.44939655 0.047490347 -0.09891575 0.07612694
000350 81 f3 31 3e f5 96 b8 be b2 25 3b 3e 97 7a 98 3e
       0.17378046 -0.3605267 0.18276098 0.2978103
000360 6a c4 b1 be 8d b0 6b bc be 8b a7 3d 1c 3e 80 be
       -0.34720165 -0.014385355 0.081809506 -0.25047386
000370 08 94 f7 3d 20 69 0c 3d 47 23 87 3e 5a 5c 1c 3f
       0.120887816 0.034279943 0.26394102 0.6107842
000380 e6 da 8e be 73 9d 08 bf 99 1b b6 be 7e b2 a6 3d
       -0.2790138 -0.5336525 -0.3556793 0.081395134
000390 d7 2d 59 3e 3e 93 f2 bd 80 fe 4f bd 95 65 a0 be
       0.21208893 -0.118444905 -0.05077982 -0.313275
0003a0 c6 81 e8 3d c1 e6 0a be 6f e8 a5 3c bf 5e 4d be
       0.11352877 -0.13564588 0.020252435 -0.20055674
0003b0 03 60 05 be 59 b7 1f be d3 bf 07 be 8a 40 10 be
       -0.13024907 -0.15597285 -0.13256769 -0.1408712
0003c0 ba 5d dd 3d b9 6a 97 3e 34 2a 4d 3e 67 7c 13 3e
       0.108088925 0.2957361 0.2003563 0.14402924
0003d0 0d 1f 07 3e 8a d8 14 be 04 cf 7f 3d f1 97 01 3d
       0.13195439 -0.14535728 0.062453285 0.031639043
0003e0 d8 29 dd 3d ce 3e c3 bd 9a 15 96 3c 5b 44 5a be
       0.10798997 -0.095334634 0.018320847 -0.21315138
0003f0 01 6e 13 be e6 b0 d2 bd 33 ae ba bd 7a 55 3a be
       -0.14397432 -0.10287647 -0.09115257 -0.18196669

fc1.bias f4 [120]
000000 94 e7 d2 ba 2c cc 01 be 29 96 ae bd a4 d6 68 bd
       -0.0016090744 -0.12675542 -0.085247345 -0.056845322
000010 4e bb 99 bd 68 35 5b bd 2a a6 68 bd 7e b5 f1 bd
       -0.07506429 -0.05351773 -0.05679909 -0.11802195
000020 88 78 b3 be e6 f2 83 bc 1a 18 bf bc d5 d5 68 3b
       -0.35052896 -0.016107034 -0.023326922 0.0035527844
000030 fb 61 76 be c5 f1 4c 3e 2d b8 eb be 66 e2 02 be
       -0.24060814 0.20014103 -0.46038952 -0.12781677
000040 47 df a2 bd 06 34 4c be a7 a3 f4 3c 87 c2 a3 bc
       -0.07952743 -0.1994172 0.029863192 -0.019990219
000050 52 2f 7b bd 10 0e 13 3e 26 bc 41 bd 57 63 9b 3e
       -0.061324425 0.14360833 -0.047298573 0.30349228
000060 79 de 20 be 0f 35 f6 3c 6e dc 7b 3c 02 16 81 be
       -0.15709867 0.030054597 0.015372379 -0.25212103
000070 2b 72 60 be 26 6e 98 bd f6 f1 42 3e 85 f9 85 bd
       -0.21918552 -0.07442884 0.19037613 -0.06541733
000080 97 ea 35 bd d9 10 86 bd be b0 89 bd a7 f4 da bd
       -0.044413175 -0.06546182 -0.06723164 -0.10691195
000090 a0 b9 8e 3b 52 9f 81 bd e8 b6 0f 3e 26 5e 4d be
       0.0043556243 -0.06329216 0.14034617 -0.20055446
0000a0 e9 38 49 3e dd 35 22 be 3d f8 07 bc b4 af b2 3d
       0.19650616 -0.1584086 -0.008298931 0.08724919
0000b0 83 aa 7a bd 54 a6 00 be c4 e3 e6 bd 0a 98 6d be
       -0.06119777 -0.12563449 -0.112739116 -0.2320253
0000c0 44 06 8f bb b3 11 15 be ce 93 76 bd 75 35 a0 bc
       -0.0043647606 -0.14557533 -0.06019955 -0.01955674
0000d0 83 ee 94 be 9e 03 0f 3e ad 37 01 be 6b 16 d9 3d
       -0.2908822 0.13966224 -0.12618895 0.10599979
0000e0 5d 52 24 3e b0 32 bf be c4 93 80 be da ca 1e bd
       0.16047044 -0.3734336 -0.25112736 -0.038767673
0000f0 9b 17 07 be 29 00 2c be 72 aa ed 3d 04 d5 54 3e
       -0.13192599 -0.16796936 0.116047755 0.20784384
000100 f5 04 65 3e a4 6a 7a bd 88 72 2b 3d 02 1d 99 be
       0.22365172 -0.061136857 0.041857272 -0.29904944
000110 36 93 a4 bd c1 b6 1d bd f7 b0 97 bd 0c 35 03 be
       -0.08035891 -0.038504366 -0.074068 -0.12813205
000120 b4 39 7e bd 0d 7e 46 3d 7c 52 71 3d e4 8a 2e be
       -0.06206675 0.048460055 0.058916554 -0.1704517
000130 bf 23 0d be d3 e9 03 be e1 e6 b2 bc 82 b4 2a be
       -0.13783167 -0.12882166 -0.021838607 -0.16670421
000140 8f 68 a5 3d 22 3a 65 3e 04 7e 48 bd 50 4f 1c ba
       0.080765836 0.22385457 -0.048948303 -0.0005962746
000150 60 cc 86 bc c3 70 2f 3e 94 f2 ee bd 1c 54 15 bd
       -0.016454875 0.17132859 -0.11667362 -0.036457166
000160 a8 fa 0d bd 8c 2e 7f bd d0 4e 64 be 08 00 7a 3a
       -0.034662873 -0.06230025 -0.2229569 0.0009536748
000170 08 00 9a bd 43 bc 1b 3e 38 f8 dc bd 75 ce 04 be
       -0.07519537 0.15208535 -0.107895315 -0.12969382
000180 75 f7 1d be 95 4a 0c be b4 db cd 3d 0f e1 a6 3c
       -0.15426429 -0.13700326 0.10051671 0.020370988
000190 22 b9 02 3e 2b 6c 96 bc 84 6c 97 be 8e f8 bf bd
       0.12765935 -0.018362125 -0.29574978 -0.0937358
0001a0 42 99 cc bd 16 3a 92 bd ff 63 31 3e 10 b5 76 bb
       -0.09990169 -0.07139985 0.17323302 -0.0037644543
0001b0 15 27 3f 3e 25 e0 83 be 75 76 10 be 2c 81 8b bc
       0.18667252 -0.25756946 -0.14107688 -0.017029367
0001c0 5a a8 4b 3e bd f2 a1 bd cf 6b cd bd 20 cc aa bc
       0.1988844 -0.07907627 -0.100303285 -0.020849288
0001d0 e4 3b af bc b3 94 2e 3d 94 7f 0e bd d1 73 5d 3e
       -0.021390863 0.04262228 -0.034789637 0.21626212

fc2.weight f4 [84, 120]
000000 6c c9 c2 be b8 16 dc 3c ac 8f a3 bd 7e 77 6d be
       -0.38044298 0.026866302 -0.079863876 -0.23190114
000010 9e a4 6e 3d 74 29 17 bd 93 44 04 3b 80 9f 1d be
       0.05826246 -0.036904767 0.0020182475 -0.15392876
000020 75 63 07 3d 8b 3d 8e bd 0e c7 f3 bc f3 c0 1f 3f
       0.033053834 -0.06945332 -0.029758003 0.6240379
000030 98 26 94 be 06 dc b8 be f3 2e 27 be 1f e7 22 bd
       -0.28935695 -0.36105365 -0.16326503 -0.039771196
000040 db ad 2c 3d e6 69 25 be 30 6b f1 bc 12 e6 92 bd
       0.04215799 -0.16153678 -0.029470056 -0.07172789
000050 de c8 2e 3d d8 4d 74 be 31 c0 ef 3c cf 55 a7 3e
       0.04267203 -0.2385782 0.029266449 0.32682654
000060 2f d5 0b be 85 b2 9a be 07 de 89 bd fa 2b 48 3d
       -0.13655542 -0.30214325 -0.067318015 0.048870064
000070 38 9e e3 bd 5d bc d2 3c fc 65 a9 3e 58 ed 9b 3d
       -0.11114162 0.025724584 0.3308562 0.07613629
000080 49 48 ae be 4e af 9a bd 39 d5 fe 3b d3 8d 61 bc
       -0.34039524 -0.07552968 0.007776883 -0.013766724
000090 ef e4 c8 bd 18 b4 bd 3c c1 bb bc be 68 af 1f 3e
       -0.098092906 0.023157164 -0.36861995 0.15594256
0000a0 95 94 ba be 3b cf c4 3d 27 fc c1 be ea fe cb be
       -0.36441484 0.096098386 -0.3788769 -0.39842921
0000b0 3b 9c 52 3c 35 19 9f 3e 63 5c 93 bd 6a c5 b2 bd
       0.012854631 0.3107392 -0.07195356 -0.0872906
0000c0 67 52 24 bd df e5 6a 3e 4a 69 50 3b 05 2c b1 bb
       -0.040117647 0.22939251 0.0031801038 -0.005406859
0000d0 1c fd b5 be 74 9b e3 3d bb 26 4f 3e cc 1f 7f be
       -0.3554467 0.11113635 0.20229618 -0.24914473
0000e0 f5 82 a0 3e dd 61 a0 be ca 61 09 3f 4e 9d 1b bd
       0.31349912 -0.31324664 0.5366484 -0.037991814
0000f0 d4 41 57 bd 86 ff 1a 3f ee 51 24 be d7 cb d2 3d
       -0.052553013 0.6054615 -0.16046879 0.102927856
000100 0b 53 52 be e7 08 58 bd 81 3e c6 be 29 f0 5e 3e
       -0.20539491 -0.052742865 -0.38719562 0.21771301
000110 2c 3a 8d bd 21 f7 c2 bc 95 40 1d 3e 62 8b 5b 3e
       -0.06895861 -0.02379948 0.15356667 0.21439889
000120 de 79 94 bd 8b da 64 3c 64 78 11 3d e7 d6 1a be
       -0.07249807 0.01396812 0.035515204 -0.15121041
000130 99 5a d7 bd 8d 90 35 be f5 2b 35 3c d0 e0 60 be
       -0.10515327 -0.17730923 0.011057843 -0.21960759
000140 e3 16 3b 3b e7 70 89 3e 9e d4 46 bc d6 ea 04 be
       0.0028547577 0.2684395 -0.012135653 -0.12980208
000150 1e c0 49 be 26 99 19 3d c9 7d 9a bd ce 4b e2 3c
       -0.19702193 0.03749957 -0.07543523 0.027624037
000160 f9 24 06 bd da 51 7b bd 46 ed cf be 32 6f e9 be
       -0.032750104 -0.061357357 -0.40610713 -0.45592648
000170 d7 14 53 bc 7d 78 df bd 94 71 9e bd f1 38 a0 bd
       -0.012883387 -0.10911653 -0.07736507 -0.07823361
000180 cb 1d 79 be f4 52 0b 3e 75 c9 02 bf e7 09 90 3e
       -0.24327771 0.13605863 -0.5108865 0.28132555
000190 ca a9 64 be 08 d1 e8 3d fa bd 6c be ce a8 83 be
       -0.22330394 0.113679945 -0.23119345 -0.25714725
0001a0 ec 78 5b bc ee a7 f4 bc b7 0b f8 3c 38 0f a6 bd
       -0.013395529 -0.029865231 0.030279024 -0.081083715
0001b0 48 3c 07 bf f0 72 9f 3e 0e 1f be bc b8 bc a9 bd
       -0.52826357 0.31142378 -0.023208167 -0.08287948
0001c0 9b 3e 6e be 77 96 2a bc 09 f3 6c bd ec 2e e2 bc
       -0.2326607 -0.01041185 -0.057848964 -0.027610265
0001d0 29 39 cd 3c 3e 05 17 3e 3e c5 b4 3d ae 8a 4e 3e
       0.02505167 0.14748093 0.088266835 0.2017009
0001e0 d1 f2 b8 bd 12 f4 29 3e 0b 8c 0e bd c6 16 04 3c
       -0.090306886 0.16597012 -0.034801524 0.00806207
0001f0 10 17 aa bb b8 05 91 3c 98 45 9a bd 79 62 a5 3e
       -0.0051907375 0.017702922 -0.07532805 0.3230169
000200 31 72 f4 be 63 34 e0 bd 85 f1 48 bd 3e ba fa 3e
       -0.4774337 -0.10947492 -0.049058456 0.48970217
000210 c7 43 be bd 78 dc 5d bd f6 80 94 be a2 1a 9f 3d
       -0.09290271 -0.054165334 -0.2900464 0.07768752
000220 7e 16 f6 bc 28 82 6f be da c2 f5 3c 1f cd ae 3d
       -0.030040022 -0.23389494 0.030000139 0.085352175
000230 b9 57 3e 3c 88 7d 9d be 1f b8 b0 3d b2 48 96 3e
       0.011617594 -0.30759835 0.08628868 0.29352337
000240 35 da c7 3e 27 63 f2 3c 56 a9 bb 3d 2b 73 af bb
       0.39033666 0.029588295 0.09163158 -0.0053543053
000250 36 eb a2 3d 61 e9 66 3d 0b 97 2a 3d 9c 46 00 be
       0.07955019 0.05637491 0.041647952 -0.12526935
000260 28 f8 6a 3e 03 92 a5 bc 5a ec b0 ba 67 11 70 bd
       0.22946227 -0.020211225 -0.0013498173 -0.058610346
000270 e8 f2 48 3d 6c 12 0b 3d 7e 76 9a be 77 07 55 3e
       0.04905978 0.033953115 -0.30168527 0.20803629
000280 dc 8d 02 3d 82 36 27 bc dc 06 ea bb 70 d9 8e be
       0.03187357 -0.010205867 -0.007141931 -0.27900267
000290 92 b3 b4 bd 1f ed 28 3d 56 71 92 3e 41 9e 6f bc
       -0.08823313 0.04124176 0.28602093 -0.014625133
0002a0 9e b4 2b bc b2 95 5e 3e 49 1d 3b 3d 61 b9 de 3b
       -0.010480074 0.21736792 0.045682225 0.006797001
0002b0 31 d9 9d 3e 6a 3e 2e 3e 15 d5 1d bd fd e0 1a be
       0.30829766 0.17015997 -0.03853329 -0.15124889
0002c0 bf 4a c5 3d 83 24 61 be ef fe d1 3e 79 0c 41 bb
       0.09633397 -0.21986584 0.4101481 -0.0029456897
0002d0 f6 50 34 be 09 da a9 3e 48 12 2b 3a 18 b7 31 3e
       -0.17609009 0.3317416 0.00065258564 0.17355001
0002e0 74 aa 44 bd 34 cc 18 bd d5 cb fc be 6d 09 16 3e
       -0.04801412 -0.03730412 -0.49374261 0.14652033
0002f0 11 f7 15 bc 4a c2 97 3d 42 3e 65 3e 52 c8 b0 3d
       -0.0091531435 0.074101046 0.2238703 0.08631958
000300 a5 ac c6 3d 82 cb f1 bd c1 b9 bc 3c 35 78 e8 3d
       0.09700898 -0.11806394 0.023037793 0.11351053
000310 46 53 ce bd 28 2b bd be 17 c7 68 3d e2 a8 4c be
       -0.10074477 -0.36946988 0.056830492 -0.19986299
000320 76 44 10 3e 40 48 bf 3e 70 6a 0d bd ad 20 6a be
       0.14088616 0.3735981 -0.034525335 -0.22864027
000330 47 63 75 3e c2 cc 50 3c f1 d1 d2 3d 7a f4 07 3e
       0.23963653 0.012744131 0.102939494 0.13276854
000340 a8 bc 56 3d 73 70 a4 bc ca a3 83 bd cd c9 c9 bd
       0.05242601 -0.020073151 -0.06427725 -0.098529436
000350 03 fa 8a 3d 7a 01 9b bd c2 5b db 3a e6 7d 07 3e
       0.06785967 -0.07568641 0.001673572 0.1323162
000360 4e 07 cf be ba 5b bc 3c ea 62 c3 bd 2a 5f 3e 3e
       -0.4043526 0.022992957 -0.09540351 0.1859099
000370 6c 2e a5 bd 03 de 16 be 39 4a 88 bd 8a af b2 3e
       -0.08065495 -0.14733128 -0.06654782 0.3489955
000380 65 b8 58 3d 62 7f f8 3c 1f ba 0f 3d 1a f1 95 3c
       0.052910227 0.030334178 0.03508961 0.018303443
000390 d4 f8 d5 be 47 c6 e8 3d 8c ee 16 be da 62 1f 3e
       -0.41791403 0.113659434 -0.14739436 0.15565053
0003a0 f0 a1 ab be a3 b6 fd 3d cd 9f 5a 3d 02 7d d1 bd
       -0.33521986 0.12388351 0.053375054 -0.102289215
0003b0 7c f8 ac bd d8 cc 61 bb 0f 8c 3c 3d 70 95 8e 3d
       -0.08445832 -0.0034454372 0.046032008 0.06962097
0003c0 25 61 b0 3e 7f 36 49 3e 6c 63 ac 3c 1b b0 64 be
       0.34449115 0.19649695 0.021043502 -0.22332804
0003d0 48 d1 e0 bc 46 f4 e0 bc 62 7e 9e 3d fe 41 44 be
       -0.027443543 -0.027460229 0.07738949 -0.19165799
0003e0 99 2a 23 be ed 8d d8 3e 66 58 b6 bc 3d 27 6b bd
       -0.15934218 0.4229578 -0.022258949 -0.057410467
0003f0 94 c2 74 3e d3 c9 b1 3e a3 ac bd be 1f 44 c1 3d
       0.2390235 0.34724292 -0.37045774 0.09436821

fc2.bias f4 [84]
000000 58 b2 c8 be 16 bd 66 bd c9 ff 12 3e 5f bb 5f 3d
       -0.39198565 -0.05633267 0.14355387 0.05462205
000010 1d c0 73 3e bc 59 b0 bd 10 ec 58 bd bc c0 63 3d
       0.23803754 -0.086108655 -0.0529595 0.055603728
000020 e1 16 21 be a0 4b 8b bd 91 ba 0a be 0a 31 fc 3d
       -0.15731384 -0.06801534 -0.13547732 0.12314041
000030 6a 71 1d be 4e 3a 12 bd 0f 2b ac bd 7f f4 27 be
       -0.15375295 -0.035700135 -0.0840665 -0.16401862
000040 ed e6 ca 3d 16 5b 70 3d 1d d6 23 be de 4f b3 bd
       0.09907327 0.058680616 -0.15999646 -0.08755468
000050 d4 bb b4 3e 04 7b 18 3e db e7 4b bc 82 bf 55 be
       0.3529955 0.14890677 -0.012445415 -0.20873836
000060 25 cd e5 bd c7 6e 47 3d 14 c0 be 3e 77 05 95 bd
       -0.11220769 0.04868963 0.3725592 -0.07276433
000070 9b e2 bc 3e b6 59 28 be a0 04 f5 3d a8 be b1 3d
       0.36891636 -0.16440472 0.11963773 0.08678943
000080 e4 1e 89 3e 05 cf 32 be d7 0d 77 be 73 ca a3 be
       0.2678138 -0.17461784 -0.24126373 -0.31990394
000090 d9 75 34 be 2c 37 9b 3d ef 8b b8 be a1 41 ec bd
       -0.1762308 0.075788826 -0.3604426 -0.11535955
0000a0 09 42 a3 3e 77 73 96 bd 27 0c 1c bb 2a f6 f1 be
       0.31886318 -0.07346242 -0.0023810954 -0.4725812
0000b0 c7 7b cf 3d 59 2c d7 3d 0c 7b 16 be 66 f9 68 be
       0.101310305 0.105065055 -0.14695376 -0.22751388
0000c0 9c ae 94 bb f3 cb f2 bd 42 82 36 be 47 21 99 be
       -0.0045374166 -0.118553065 -0.17823127 -0.299082
0000d0 98 42 65 3b bb 29 74 3d c4 89 46 3d 46 c9 30 3d
       0.003498232 0.05961011 0.048471227 0.0431607
0000e0 37 7c 57 bb d5 69 01 bf 64 da 59 3d 68 d9 89 3e
       -0.0032880434 -0.5055211 0.05318679 0.2692368
0000f0 f4 f4 e4 bd 96 2d 41 be a3 53 44 be fc b1 d9 3d
       -0.111795336 -0.18865046 -0.1917253 0.10629651
000100 68 93 87 bd ba 7a 0a 3e 9d 87 e1 bd fc db 4a bd
       -0.066199124 0.13523379 -0.11012194 -0.0495262
000110 32 39 0d 3d 5d 0e b2 3d 55 ec 5f bd d3 55 f4 bd
       0.034478374 0.08694146 -0.054668743 -0.11930432
000120 5c f8 2f be d2 76 a7 3c 15 66 07 3f 20 09 d8 3e
       -0.17184585 0.0204424 0.5289014 0.42194462
000130 2a 3c 21 be 48 ce b6 3d 29 ec 40 be 1b f0 04 3e
       -0.15745607 0.08926064 -0.18840088 0.12982218
000140 71 08 5a 3e 15 ed 91 be 75 9b 70 bd 71 84 42 be
       0.21292283 -0.28501192 -0.058742005 -0.18995835

fc3.weight f4 [10, 84]
000000 6c 66 e1 3d 0d ae 4f 3e b1 7b 09 bf 4d 39 a9 be
       0.110058635 0.20281239 -0.53704363 -0.3305153
000010 c3 65 ef bb d7 6e 12 bd fa 53 4c 3e 11 97 de bd
       -0.007305832 -0.035750236 0.1995391 -0.108686574
000020 9b 06 ea bd b7 af 22 3e 5c b1 28 3e 98 b2 8e be
       -0.11427041 0.15887342 0.16473907 -0.2787063
000030 14 b0 b7 bc 5a 70 0d bf d8 8f 45 3d bb 14 7d be
       -0.022422828 -0.5524956 0.048232883 -0.2471494
000040 57 fb 11 3e f7 d0 83 bd 9c 71 af bd 8e cc 26 be
       0.14256035 -0.06436341 -0.08566591 -0.16288969
000050 88 19 40 be 8d a6 89 be c7 61 0e be f0 16 0a 3e
       -0.1875974 -0.2688488 -0.13904487 0.13485312
000060 31 ac 23 bd 0c d4 83 be 80 90 25 3e cf b2 c6 3d
       -0.039959136 -0.25747716 0.16168404 0.09702074
000070 96 51 f1 be 2a 2b ac 3d b5 3c ab 3e 27 42 b9 be
       -0.47132558 0.084066704 0.33444753 -0.36183283
000080 bc 04 22 be c1 61 9f be 87 fa b4 bd 28 23 1d bd
       -0.15822119 -0.31129268 -0.08836847 -0.038363606
000090 ef 50 19 bd 28 00 4b bd 21 2e b9 bd e1 f2 a8 bd
       -0.0374307 -0.049560696 -0.090420015 -0.082494505
0000a0 5b a2 f0 3e a1 1c 43 3d 99 9f 3e be 84 e0 1e be
       0.46998867 0.047634725 -0.18615569 -0.15515333
0000b0 51 44 e6 3e e7 52 09 be b1 13 f1 3e 9d 64 9e be
       0.44973996 -0.13410531 0.47085336 -0.30936137
0000c0 32 30 49 3c 9a 40 b2 bd 68 37 34 bd 44 0e a0 be
       0.012279557 -0.08703728 -0.043998152 -0.31260884
0000d0 63 a0 1c 3d cf ef 18 be 16 6e 45 3c 9c d0 90 3e
       0.038238894 -0.1493523 0.012050172 0.28284156
0000e0 55 33 f8 bd e6 a2 95 be 08 42 b3 bc 4b da ab be
       -0.12119166 -0.29225844 -0.021882072 -0.33564982
0000f0 48 9d 38 3c ed 0d 92 3e 31 2d 6c be 7a f6 ea be
       0.0112679675 0.2852625 -0.23064114 -0.45891172
000100 32 9e ed be fc f9 8f ba c9 0a 05 be 4e 2b 3b be
       -0.46409756 -0.0010984535 -0.12992395 -0.18278238
000110 82 27 7d be 0f 72 2f be 91 75 b7 3e 5c 89 80 3d
       -0.24722102 -0.17133354 0.35831884 0.06276199
000120 9e cf 1b 3d a6 c4 d6 bd 34 be 20 bf cd 0c 91 3e
       0.038039796 -0.104867265 -0.62790227 0.2833008
000130 36 bb 2f 3d b0 c7 0c bf 2f 09 12 3e 2e 2e 89 3d
       0.042903148 -0.549922 0.14261316 0.06698261
000140 9c f2 03 3f 21 7a 18 bc 31 21 22 bd ed 24 aa 3e
       0.5154207 -0.009306462 -0.039582435 0.33231297
000150 d6 f6 11 3f 27 d0 bb 3e 37 bd 83 be 0b 75 c6 bd
       0.57017267 0.36682245 -0.25730297 -0.09690293
000160 2b 0a e2 bc 53 af 89 bc 53 7a 9a be c0 cb 31 be
       -0.02759274 -0.016807234 -0.3017145 -0.1736288
000170 87 91 f0 bc 2e 63 37 3e 39 6c 96 be 44 fb 4c 3d
       -0.029366268 0.17908928 -0.29379442 0.050044313
000180 5a f7 cb 3d a9 e9 50 be a5 af 4d bd 27 0c f2 bd
       0.09959288 -0.20401634 -0.050216336 -0.11818724
000190 c9 cb 10 be 18 09 04 be 4e 13 da bd 9f 41 31 be
       -0.14140238 -0.12894094 -0.10648213 -0.17310189
0001a0 e8 9f a3 3c f2 48 d1 be 18 c6 bb 3e e7 8b 1e be
       0.01997371 -0.40875965 0.3667457 -0.15483056
0001b0 f1 ae 94 3c ae 61 0b bf c7 69 85 bf 5f 0a 06 be
       0.018149825 -0.5444592 -1.0422906 -0.13089894
0001c0 ca 70 9b be ef 2d af 3d 16 d3 a9 be a8 2d 8f be
       -0.3035949 0.08553683 -0.33168858 -0.2796452
0001d0 e5 b8 68 be d5 68 c6 be 70 c9 ea bd f4 8b 53 bd
       -0.22726782 -0.38751855 -0.114642024 -0.05164714
0001e0 95 24 25 3f 28 fe 3f 3e 03 c8 87 be 9e f1 c7 bc
       0.64508945 0.18749297 -0.26519784 -0.024407204
0001f0 d5 c7 fd bc 25 8f 1b be 65 08 94 be b3 67 ed be
       -0.030979076 -0.15191324 -0.28912655 -0.4636818
000200 d4 b6 c2 bd e5 f5 1e bc 0f 80 02 be 7e 11 f0 3e
       -0.09507528 -0.0097021805 -0.12744163 0.46888345
000210 29 0c 7e 3e 74 32 19 bd e4 9d f8 3c 95 3a a1 bd
       0.24809326 -0.03740163 0.030348726 -0.07872502
000220 d4 36 b8 3c 13 e1 bb bd d5 32 3b be 5c ed c3 3c
       0.022487082 -0.09173789 -0.1828111 0.023916893
000230 38 f6 29 3d 22 a0 e1 3d ea df 1e 3e ae 95 16 be
       0.041494578 0.11016871 0.15515104 -0.14705536
000240 dd 8f d7 bd f9 1a b8 3e fb 2e a2 bc c9 4d 93 be
       -0.105254866 0.35958079 -0.019797793 -0.28770283
000250 e7 51 f3 3d 35 d0 88 be c4 51 0b 3e db a1 50 be
       0.11880856 -0.2672135 0.1360541 -0.20374243
000260 e0 0c 28 bf 07 75 2c 3d 85 1c bb bd da 34 d3 bd
       -0.65644646 0.042103793 -0.09136299 -0.10312815
000270 0a 59 18 be f4 be 40 3e 2a 30 f0 be 4b 18 be bd
       -0.14877716 0.18822843 -0.46911746 -0.09281977
000280 9b 7f bb bd 1e 31 da be ea bc 38 be 3a e0 90 be
       -0.09155198 -0.42615598 -0.18040815 -0.2829607
000290 fb 33 9b be e1 b1 2c be d7 bb 2d be b8 67 cd 3d
       -0.30313095 -0.1686473 -0.16966186 0.100295484
0002a0 c7 26 5a be 4f 61 21 3e 55 df 88 3c bd c1 b0 3d
       -0.21303855 0.15759777 0.016708056 0.08630703
0002b0 41 e8 d4 3e dc 71 32 bd 59 ab 00 bf 7b 6c 75 3e
       0.41583446 -0.043565616 -0.50261456 0.23967163
0002c0 03 ab fe 3c fb 8b bb be 76 7a a3 bc 20 74 c8 b9
       0.031087404 -0.36630234 -0.019955855 -0.00038233493
0002d0 dd 9c 5a 3d cf 60 21 bd fd 65 cd bc c4 1c ff be
       0.053372253 -0.039398964 -0.025073046 -0.49826634
0002e0 f2 a0 a7 be bc 0e 1b bb 14 7c 35 be 8d 0c 94 be
       -0.3273998 -0.0023659905 -0.17723113 -0.28915825
0002f0 0c af 7b 3e 8d 66 04 bf 4a 6a a1 3e 9f e5 20 3a
       0.24578494 -0.5171898 0.31526405 0.0006137732
000300 ba 74 9b bd 04 96 ef be dc 6e ca 3c b0 0e a3 3e
       -0.07590623 -0.4679414 0.024711065 0.31847143
000310 5a 57 91 3e a5 8c dc be 2d 98 0f bd 40 d1 fa be
       0.28386956 -0.43076053 -0.035057236 -0.4898777
000320 6e 7e 8f 3e f2 8d ee bd fe 4d ff bc 29 dc 31 be
       0.28026146 -0.11648168 -0.03116512 -0.1736914
000330 b9 c4 8d be ab 6a fd 3d b1 bd 12 bd c6 8f a3 3c
       -0.2768915 0.12373861 -0.035825435 0.019966017
000340 16 6e b8 3e 91 a0 86 bd 14 1f da 3d 03 c5 3c 3d
       0.3602149 -0.06573594 0.10650459 0.046086323
000350 b7 f5 41 3e 22 2d 26 bb 60 0a f8 be 2d 9b 17 bf
       0.18941389 -0.002535649 -0.48445415 -0.59221154
000360 7b c2 14 3e ba e9 db bd 8a 60 bb bd db 4f f1 bc
       0.14527313 -0.10737939 -0.09149273 -0.029457023
000370 68 5c 7d be 6b 72 47 3e 28 d3 04 3d 22 24 49 3d
       -0.24742281 0.1947724 0.032427937 0.049106725
000380 0b c0 83 3e e6 32 29 be 77 1d dd be 8d 34 5b be
       0.25732455 -0.16523322 -0.43186542 -0.21406765
000390 95 f5 bc bd 6e 18 1b bf b4 89 c7 be e9 80 8c 3e
       -0.092265286 -0.6058415 -0.38972247 0.274421
0003a0 ad d3 e3 be 83 2d af 3e cc 95 78 3e 44 83 86 be
       -0.44497433 0.3421441 0.24275893 -0.26272023
0003b0 08 b5 c9 3c ae e4 ec bd 17 17 f1 be 62 ea 01 3e
       0.024622455 -0.11567055 -0.4708793 0.12687066
0003c0 08 16 bb 3d c8 30 16 bd 11 58 a6 3e 59 b5 7b 3e
       0.091350615 -0.036667615 0.32489064 0.24580897
0003d0 3f b6 1e bd 40 68 e2 be c4 19 05 3e e9 67 81 be
       -0.038748022 -0.4422016 0.1299811 -0.2527459
0003e0 a3 27 6d 3e 11 78 e2 be ff 2a 26 bd 21 af 2a bf
       0.23159651 -0.44232228 -0.040568348 -0.66673476
0003f0 27 79 d7 be 17 7b 4d 3d 97 c8 0b bf 26 7b 38 3e
       -0.4208462 0.050166216 -0.5460295 0.18015727

fc3.bias f4 [10]
000000 91 bd 80 bd ee 88 02 be 38 52 bf 3e dc 6f e2 bd
       -0.06286157 -0.12747547 0.37367415 -0.11056492
000010 e8 6f aa be 64 8c 51 bd 74 95 c2 3e ba 1e 38 3e
       -0.33288503 -0.051159278 0.3800465 0.17980471
000020 ae 88 c2 bb 86 60 6b bd
       -0.0059367036 -0.0574651
